source/trained_model.pth (torch, 569612 bytes, 10 tensors)

weight f4 [32, 1, 3, 3]
0	0xbd8a5c1b	-0.06755849
1	0x3e01d0ed	0.12677355
2	0x3dd90fce	0.10598718
3	0x3d1c72e9	0.038195524
4	0xbe93e299	-0.28883818
5	0x3da4bf19	0.080442615
6	0xbecccd63	-0.40000448
7	0x3e06f7b7	0.13180433
8	0x3e8cc9b8	0.2749765
9	0x3e14e3d6	0.14540038
10	0x3e598e4f	0.21245693
11	0x3e0e65b3	0.13905983
12	0xbeae1569	-0.3400071
13	0xbda93459	-0.08261938
14	0x3e681580	0.22664452
15	0x3b8a4d29	0.004220624
16	0xbead3358	-0.33828235
17	0xbed1e147	-0.40992185
18	0xbe866372	-0.26247746
19	0x3e50a3e2	0.20375016
20	0xbe1990e6	-0.1499668
21	0xbea8b846	-0.3295309
22	0xbdd3f3e2	-0.10349251
23	0x3ea8b083	0.32947168
24	0xbe216999	-0.15762939
25	0x3de5e0ae	0.11224495
26	0x3e3eb234	0.18622667
27	0xbe51710c	-0.2045328
28	0x3d23cbe0	0.039989352
29	0x3e8b4767	0.27202913
30	0x3ca88c8a	0.020574827
31	0x3e018c19	0.126511
32	0x3e230663	0.15920405
33	0xbe8e118c	-0.27747762
34	0xbeb7f252	-0.35927063
35	0xbe4e4c3e	-0.20146272
36	0xbeb0967c	-0.3448981
37	0xbd0a0786	-0.03369858
38	0xbdd251ee	-0.10269533
39	0xbe9842fa	-0.297386
40	0x3e830dc7	0.2559645
41	0xbebbfa13	-0.3671423
42	0x3ec7385e	0.38910192
43	0x3dd4f3c8	0.1039806
44	0xbe3124b4	-0.17299157
45	0xbe60029f	-0.21876
46	0x3e0b7559	0.13618983
47	0x3e161f85	0.14660461
48	0x3e716c08	0.23576367
49	0xbdcb4120	-0.09924531
50	0x3ce610e2	0.028084222
51	0x3e0541a0	0.13013315
52	0xbeb4d083	-0.35315332
53	0xbe02c3f7	-0.12770067
54	0xbc3c4de2	-0.011493178
55	0xbe1a2375	-0.15052588
56	0x3cc091a9	0.023506956
57	0xbe13cda6	-0.14433917
58	0xbda72c24	-0.08162716
59	0xbd86b5af	-0.06577622
60	0xbe8d72a1	-0.27626517
61	0xbdb214c8	-0.0869537
62	0xbd92dd23	-0.07171085
63	0xbea3b00b	-0.31970248
64	0xbd19e76b	-0.037574213
65	0xbd059c39	-0.03261969
66	0x3c9e1539	0.01929723
67	0xbbd385bc	-0.0064551514
68	0x3e4988db	0.19681112
69	0x3eb32edd	0.3499669
70	0xbdedd750	-0.11613333
71	0xbe8cdaf8	-0.2751081
72	0xbe10b037	-0.1412972
73	0xbeb48873	-0.35260352
74	0x3e1a6088	0.15075886
75	0x3cb2a0dc	0.02180522
76	0xbebf8d96	-0.3741271
77	0x3e1cb32d	0.15302725
78	0xbe0c998f	-0.13730453
79	0xbcc4e8b4	-0.024036743
80	0x3ccff692	0.025386129
81	0x3e4f6a97	0.20255505
82	0x3e8e3247	0.27772734
83	0xbe2d8fdc	-0.16949409
84	0xbe07d632	-0.13265303
85	0x3d630bf8	0.055431336
86	0x3aee3e60	0.0018176548
87	0xbc93acfd	-0.018026823
88	0x3e238698	0.15969312
89	0x3d339642	0.04384447
90	0xbde1bded	-0.110225536
91	0xbe6d905c	-0.231996
92	0x3e0ae6e0	0.13564634
93	0x3ebf5cb5	0.37375417
94	0x3e1fa027	0.15588437
95	0xbdfe84ce	-0.12427674
96	0xbe192132	-0.1495407
97	0x3e2365a3	0.1595674
98	0x3d075677	0.033041444
99	0xbd83c354	-0.0643374
100	0x3e3753a5	0.17903002
101	0xbe10708e	-0.14105436
102	0x3cbddef5	0.023177603
103	0x3d9de18d	0.07709036
104	0xbe8d2082	-0.27563864
105	0x3e970fa8	0.29504132
106	0x3e66a57d	0.22524066
107	0xbec66d7d	-0.38755408
108	0xbe46798e	-0.19382307
109	0xbda08102	-0.07837106
110	0xbeb3675d	-0.35039797
111	0x3e84cd33	0.25937805
112	0x3e6efc3b	0.23338406
113	0x3bf908dc	0.007599933
114	0xbdd9ed9a	-0.10641022
115	0xbe7bd5ad	-0.2459323
116	0xbe29618d	-0.16541119
117	0xbd50f04b	-0.05101041
118	0xbe905c31	-0.28195336
119	0xbe897a49	-0.2685111
120	0xbe9093ea	-0.2823785
121	0x3e3742f9	0.17896642
122	0x3e4c75ed	0.1996686
123	0xbe02124d	-0.12702294
124	0x3e694813	0.227814
125	0xbd01ec1d	-0.031719316
126	0xbda0812a	-0.07837136
127	0x3e2497f1	0.16073586
128	0x3eaa5135	0.3326508
129	0xbe22bbd3	-0.15891962
130	0x3e9a9ab3	0.3019615
131	0xbe58a804	-0.21157843
132	0xbc2bcceb	-0.010485868
133	0xbd3a05de	-0.04541575
134	0xbec4d65a	-0.38444787
135	0x3e94e46a	0.29080516
136	0x3e72a019	0.23693885
137	0x3e1e4dcb	0.15459363
138	0xbe2390d3	-0.15973215
139	0x3e82446a	0.2544282
140	0x3d304dd4	0.043042973
141	0xbebe7b14	-0.37203276
142	0xbe9a8afa	-0.30184156
143	0x3e5ed151	0.21759535
144	0x3e7ea8e9	0.24869122
145	0xbe9c2bdc	-0.30502212
146	0xbe54ffaf	-0.2080066
147	0x3e39fab0	0.18162036
148	0xbe9bc10f	-0.3042073
149	0xbe8db233	-0.27675018
150	0xbe879b28	-0.26485562
151	0xbb2c1ae9	-0.0026261157
152	0x3e693af4	0.22776395
153	0xbea9bf5a	-0.33153802
154	0x3d2cb248	0.04216221
155	0x3e31b97c	0.17355913
156	0x3e4129cf	0.18863605
157	0xbdc68e5b	-0.09695121
158	0xbed275b1	-0.41105416
159	0xbdb269cc	-0.087115854
160	0x3e8083e7	0.25100634
161	0x3e399e00	0.18126678
162	0x3d4563f9	0.048191044
163	0x3d6ae4f4	0.057347253
164	0xbd5a453a	-0.053288676
165	0x3e4aace9	0.19792522
166	0x3e9ba4d7	0.303992
167	0x3cdf63e6	0.027269315
168	0xbe6a98b4	-0.22909814
169	0x3e94df6a	0.290767
170	0xbe880379	-0.2656515
171	0x3e022a76	0.1271151
172	0xbc9ce550	-0.019152313
173	0xbdf704a1	-0.1206143
174	0x3e0250a4	0.12726074
175	0xbde6e3dc	-0.112739295
176	0xbe355ade	-0.17710444
177	0xbe84ca3e	-0.2593555
178	0xbe26aa20	-0.16275835
179	0xbde32c9f	-0.11092495
180	0xbeef3c6a	-0.4672578
181	0xbec40ad7	-0.3828952
182	0x3de7ffd8	0.11328095
183	0x3caf0a4b	0.021367213
184	0x3dfcb05d	0.12338326
185	0x3d449790	0.047996104
186	0xbe8e606b	-0.27807936
187	0x3be206dd	0.006897791
188	0x3ebc0f06	0.36730212
189	0x3e08c392	0.13355854
190	0x3caf31ab	0.021385988
191	0xbe752648	-0.23940384
192	0x3ca138db	0.019680431
193	0x3ea5ae03	0.32359323
194	0x3c5cfb11	0.013487593
195	0xbe3c2288	-0.18372548
196	0xbdfa056a	-0.12208064
197	0x3e63d118	0.22247732
198	0x3d699f49	0.05703667
199	0x3e0ba281	0.13636209
200	0x3d097b5f	0.03356492
201	0xbea5679c	-0.3230561
202	0x3e6b0073	0.2294939
203	0xbc9aacf3	-0.018881297
204	0x3e98467c	0.29741275
205	0x3e05caf5	0.13065703
206	0x3e25b175	0.16180976
207	0xbe9ed4f4	-0.31021845
208	0x3e2372b8	0.1596173
209	0x3e818216	0.2529456
210	0xbdb7e885	-0.089798965
211	0x3e6b1945	0.22958858
212	0x3e208d4a	0.15678898
213	0x3dccc069	0.09997637
214	0x3e3cde31	0.18444134
215	0xbea2f5da	-0.31828195
216	0x3e31efa8	0.17376578
217	0x3e3cee2b	0.18450229
218	0xbd32f6e9	-0.043692503
219	0xbebaf152	-0.36512238
220	0x3dbfb2b1	0.093602546
221	0xbebbb33d	-0.36660185
222	0xbe3ab8b3	-0.1823452
223	0x3e235646	0.1595088
224	0xbe72fb03	-0.23728566
225	0x3ebd0490	0.36917543
226	0xbe25844f	-0.16163753
227	0x3e1a62c9	0.15076746
228	0xbe5bea0e	-0.21476004
229	0x3d06cf22	0.03291238
230	0xbe153193	-0.14569692
231	0xbe7dbeee	-0.24779865
232	0x3d969e0f	0.07354366
233	0xbeb92946	-0.36164302
234	0xbe99cf4f	-0.30040976
235	0xbe36ee5c	-0.17864364
236	0xbe9de445	-0.30838218
237	0xbe274fac	-0.16338986
238	0x3e61eb52	0.22062424
239	0x3d915617	0.070964985
240	0x3e53f637	0.20699392
241	0x3d721229	0.05909935
242	0x3e0e3b89	0.13889898
243	0x3d9457e4	0.07243326
244	0xbd0ccee9	-0.034377012
245	0xbe0e5346	-0.13898954
246	0x3e8a72f1	0.27040818
247	0xbe83890e	-0.25690502
248	0x3e1e344b	0.15449636
249	0x3e8e5f83	0.27807245
250	0x3e23fb83	0.16013913
251	0x3e630a53	0.22171907
252	0x3dc99560	0.09842944
253	0x3dadf7a0	0.08494496
254	0xbb272030	-0.0025501363
255	0xbe09d980	-0.13461876

bias f4 [32]
0	0xbe7e678e	-0.2484419
1	0xbdf01330	-0.1172241
2	0xbe043adc	-0.12913078
3	0x3e533334	0.20625001
4	0xbe2957ef	-0.1653745
5	0xbd8755a8	-0.066081345
6	0xbe3bbcc0	-0.18333721
7	0xbdaa8c84	-0.083275825
8	0xbd9f7bd2	-0.07787289
9	0x3b824026	0.0039749322
10	0xbe873d79	-0.26414087
11	0xbe648b1a	-0.22318688
12	0xbe912acd	-0.28352967
13	0xbe1bd75b	-0.1521887
14	0xbe553bd1	-0.208236
15	0xbe056e99	-0.13030471
16	0xbe165fbe	-0.1468496
17	0x3cb55d01	0.022139074
18	0xbc318b67	-0.010836459
19	0x3e0dce9d	0.13848348
20	0xbe4ea3d7	-0.20179687
21	0xbe9db4da	-0.3080204
22	0xbec7c0ea	-0.3901437
23	0xbe23d74d	-0.160001
24	0xbe5c8f21	-0.21538974
25	0xbe7dc663	-0.2478271
26	0xbe4c0fb3	-0.19927864
27	0xbd1910e0	-0.03736961
28	0xbea73bf7	-0.32662937
29	0xbe89f372	-0.26943547
30	0xbdd19e0f	-0.102352254
31	0x3e10b5dd	0.14131875

weight f4 [64, 32, 3, 3]
0	0xbc15379b	-0.009107496
1	0xbd824f8d	-0.06362829
2	0xbd8347d9	-0.06410188
3	0x3c18ae3b	0.0093188835
4	0xbbeb0d58	-0.0071732216
5	0xbd6f45ce	-0.05841618
6	0x3d2ff50f	0.042958315
7	0x3d2ef288	0.042711765
8	0x3d1fb0e3	0.03898705
9	0xbcdafeb4	-0.02673278
10	0xbc88e975	-0.016712883
11	0x3d0a017f	0.033692833
12	0xbd81b683	-0.063336395
13	0x3caee7e2	0.021350805
14	0x3c35e84f	0.01110275
15	0xba287778	-0.00064264936
16	0xbd7cb20d	-0.06169324
17	0xbc61952b	-0.013768475
18	0xbd52d858	-0.051475853
19	0x385ae64d	5.2189735e-05
20	0xbd181209	-0.037126575
21	0x3d13b7fb	0.03606413
22	0xbd472857	-0.048622455
23	0xbd25e7b7	-0.040504184
24	0x3bd824ba	0.006596175
25	0x3c75d8a9	0.015005269
26	0xbd2d4e88	-0.04231122
27	0xbd7560f8	-0.05990693
28	0xbcee0bcf	-0.029058365
29	0xbcd92804	-0.026508339
30	0xbc80a204	-0.015702255
31	0x3b544ac4	0.0032393197
32	0x3c96e0ac	0.018417679
33	0xbd238f78	-0.039931744
34	0xbd230e6d	-0.03980868
35	0xbd302234	-0.04300137
36	0x3bf26fbe	0.0073985746
37	0xba78a269	-0.000948465
38	0xbc62107d	-0.013797876
39	0xbd890ea8	-0.066922486
40	0x3c96a793	0.018390452
41	0xbd35e5f8	-0.04440877
42	0xbd838a96	-0.064229175
43	0xbd49fcdd	-0.049313415
44	0x3cea5f56	0.028609913
45	0x3b2448e6	0.0025067865
46	0x3d3b95cc	0.045797154
47	0xbd3b6d32	-0.045758434
48	0xbd5a74a9	-0.053333912
49	0xbd126cd5	-0.03574832
50	0x3d09d8e8	0.033654124
51	0xbd86db2c	-0.065847725
52	0x3d011369	0.03151265
53	0xbb225958	-0.0024772491
54	0xbce14341	-0.02749789
55	0x3c109185	0.008823757
56	0xbd1d475b	-0.038398128
57	0x3c3a51b9	0.011372023
58	0xbd0f92dc	-0.035052165
59	0xbc3726dd	-0.011178699
60	0xbd527956	-0.051385246
61	0x3d0f3d3e	0.034970514
62	0xbd851d8d	-0.06499777
63	0xbd5d9ec3	-0.054106485
64	0x3c8ad4f9	0.016947256
65	0xbcf0708f	-0.029350547
66	0x3d2ea256	0.042635284
67	0xbc86140a	-0.016366977
68	0xbd86c01c	-0.06579611
69	0x3d31f332	0.04344482
70	0xbd69d403	-0.057086956
71	0xbd9447a2	-0.072402254
72	0xbc6f8595	-0.014619251
73	0xbcbc271e	-0.022967871
74	0x3d0a4f19	0.03376684
75	0xbb5f2f38	-0.0034055244
76	0x3cdb50e1	0.026771965
77	0x3d2c80a5	0.042114872
78	0x3c08e26b	0.0083547635
79	0x3cc05479	0.02347778
80	0x3c4ef11a	0.012630725
81	0xbc96b18c	-0.018395208
82	0x3cc12be7	0.023580505
83	0xbd75b05e	-0.05998265
84	0xbd6adf5b	-0.057341915
85	0xbc16f4a7	-0.009213603
86	0xbc8ec82a	-0.01742943
87	0xbc4cc6a0	-0.012498528
88	0xbd4c6e7a	-0.049910046
89	0x3d247f14	0.040160254
90	0xbbeb0ad8	-0.0071729235
91	0xbd5e623c	-0.054292902
92	0xbd048a6c	-0.032358572
93	0x3bb241a1	0.0054399525
94	0xbbd95ff6	-0.006633754
95	0xbd2cc244	-0.042177454
96	0x3d24c964	0.040231124
97	0xbd2a6796	-0.041602693
98	0x3d2a3afd	0.04156016
99	0xbd26f3f7	-0.040760007
100	0xbd90e0ae	-0.07074104
101	0x3c47e61f	0.012200861
102	0x3c2a0721	0.010377676
103	0xbc69759b	-0.014249231
104	0xbced457e	-0.0289638
105	0x3cd28332	0.025697324
106	0xbd2f795f	-0.042840358
107	0x3bb68b1b	0.005570782
108	0xbaf59c75	-0.0018738644
109	0xbd010be0	-0.031505466
110	0x3b83d42f	0.004023097
111	0xbc96dc45	-0.01841558
112	0xbd35ebf1	-0.044414464
113	0x3b3cc986	0.002880664
114	0xbd09105a	-0.03346286
115	0x3d0d715e	0.034531944
116	0x3be07402	0.0068497667
117	0x3ccb7a52	0.0248386
118	0xbd3c4228	-0.04596153
119	0x3c824853	0.015903627
120	0xbd905c45	-0.07048849
121	0xbd1ef794	-0.038810328
122	0xbcc5e0ca	-0.02415504
123	0xbd8a9bb6	-0.06767981
124	0xbd6d5766	-0.057944678
125	0x3d1bc14c	0.03802614
126	0xbad42727	-0.0016185985
127	0x3ac14e49	0.0014748062
128	0x3d0b8742	0.03406454
129	0xbb00d44b	-0.0019657786
130	0xbb6668dc	-0.0035157716
131	0xbd0331cb	-0.03202991
132	0xbd6d80f4	-0.057984307
133	0x3c8533d4	0.016260065
134	0xbd3cf808	-0.04613498
135	0x3c5dfcec	0.013549071
136	0xbc266390	-0.0101555735
137	0xbd3e384b	-0.046440404
138	0x3c998a3f	0.018742679
139	0xbd56c902	-0.05243779
140	0xb97edf92	-0.00024306614
141	0xbd0cfa94	-0.034418657
142	0x3cd9ed4c	0.02660241
143	0xbd31e582	-0.043431766
144	0xbcb40d3e	-0.02197897
145	0x3d2b74d1	0.04185945
146	0x3c458895	0.0120564895
147	0xbd01ccd2	-0.031689472
148	0x3d0943a6	0.03351178
149	0x3c731987	0.014837629
150	0xbd4fe4e8	-0.05075541
151	0x3d171478	0.036884755
152	0xbd000b8b	-0.03126101
153	0x3d068220	0.03283894
154	0x3d3f48d2	0.046700306
155	0xbd8126f7	-0.0630626
156	0xbcbe138e	-0.023202684
157	0xbcf882dd	-0.030335838
158	0xbc5e0233	-0.013550329
159	0x3d1b071a	0.03784857
160	0xbcf89012	-0.030342136
161	0x3c9cc521	0.019136967
162	0x3cf5d853	0.030010378
163	0xbd1fa895	-0.03897913
164	0x3bbe1080	0.005800307
165	0xbd568e5e	-0.052381866
166	0xbd48fd6b	-0.049069803
167	0xbd44da5b	-0.048059803
168	0xbd2787c9	-0.04090098
169	0xbd74733e	-0.059680216
170	0x3ccea731	0.025226207
171	0xbd72ba6c	-0.059259817
172	0x3c5e3907	0.013563401
173	0xbd87a9dd	-0.06624196
174	0x3cb41f3e	0.021987554
175	0xbd4e2b99	-0.050334547
176	0xbb607de1	-0.0034254717
177	0xbd6d63cc	-0.0579565
178	0xbd0df524	-0.034657612
179	0xbd0a857f	-0.033818718
180	0xbc067bac	-0.008208197
181	0xbcb02071	-0.021499844
182	0xbd66f0b7	-0.056381907
183	0xbd043609	-0.032278094
184	0x3bc4d375	0.006006653
185	0x3cbda33a	0.023149122
186	0x3d20b418	0.03923425
187	0xbca1433e	-0.019685384
188	0x3a38ede1	0.00070544897
189	0x3c5cc0d8	0.013473712
190	0x3b0a67cc	0.0021118997
191	0x3b9261b2	0.0044672126
192	0xbd4f79b5	-0.05065318
193	0x3cdbb7f3	0.026821112
194	0x3d0b18ae	0.033959083
195	0xbc9341a9	-0.017975645
196	0xbd345dfd	-0.044034947
197	0xbd22bb2f	-0.039729293
198	0xbd74a996	-0.059732042
199	0xbd262d2e	-0.04057043
200	0xbc8d82b4	-0.017274238
201	0x3d12dd7b	0.03585575
202	0x3d00fe79	0.031492684
203	0xbc693931	-0.014234827
204	0x3cebcac9	0.028783219
205	0xbd9234ab	-0.07138952
206	0x3c96f670	0.018428057
207	0x3c8f7d29	0.017515736
208	0xbce16555	-0.02751414
209	0x3bb8b608	0.005636934
210	0xbd84a77a	-0.06477256
211	0xbd03bfd6	-0.03216537
212	0xbd6227c6	-0.055213712
213	0x3d368610	0.044561446
214	0x38ee8c1c	0.00011374822
215	0xb9f5e393	-0.00046899598
216	0xbc3cdff4	-0.011528004
217	0x3c998901	0.018742086
218	0xbcdab1ea	-0.026696164
219	0xbd6cd216	-0.05781754
220	0x3c698253	0.014252263
221	0xbd6d513e	-0.057938807
222	0xbcbecc64	-0.02329082
223	0x3d1edf07	0.038786914
224	0xbd20359c	-0.039113626
225	0xbc7c71ef	-0.015408023
226	0xbc4a5f54	-0.01235183
227	0xbca8959d	-0.020579154
228	0xbd704cf0	-0.058667123
229	0xbd07c8e1	-0.033150557
230	0xbd5967db	-0.05307756
231	0xbc4b587f	-0.012411236
232	0xbcbd79f1	-0.023129435
233	0x3b8b5fc0	0.0042533576
234	0xbccd5c36	-0.025068384
235	0xbd45ebcb	-0.048320573
236	0xbd52ba09	-0.05144695
237	0xbcc0ef7d	-0.023551697
238	0xbd3bc772	-0.045844503
239	0xbd533c37	-0.051571097
240	0xbbb61c81	-0.005557597
241	0x3a2af75e	0.0006521846
242	0x3ccb403b	0.0248109
243	0xbba72b8f	-0.005101628
244	0x3cc267de	0.023731168
245	0xbb80782b	-0.003920575
246	0x3ba6c7ee	0.0050897514
247	0x3d3d1db2	0.046170898
248	0x3d354ad5	0.04426082
249	0xbaabe282	-0.0013113769
250	0xbd2e91ea	-0.042619623
251	0xbd60f331	-0.054919425
252	0xbd358ed7	-0.044325676
253	0xbc16ba49	-0.009199687
254	0xbd866f3f	-0.06564187
255	0x3c8d9520	0.017283022

bias f4 [64]
0	0x3cce4e11	0.02518371
1	0x3d09692f	0.033547577
2	0x3cd66aad	0.026173914
3	0x3b0e1641	0.0021680745
4	0x3d10fb5e	0.035395972
5	0xbc794d77	-0.015216223
6	0xbd366c98	-0.044537157
7	0x3c976502	0.018480781
8	0xbd8a053d	-0.067392804
9	0x3ceac90c	0.02866032
10	0xbc2c9cee	-0.010535462
11	0x3c04065b	0.008058156
12	0xbbee460d	-0.0072715343
13	0x3b9448be	0.004525273
14	0xbc985f28	-0.018600062
15	0x3c6450ae	0.013935251
16	0xbc9663fb	-0.018358221
17	0xbc46b47b	-0.012127991
18	0xbce3f02b	-0.027824482
19	0xbc8b46db	-0.01700156
20	0x3d25957c	0.040425763
21	0xbd74cbaf	-0.05976456
22	0xbd61fd90	-0.055173457
23	0xbcb0477d	-0.021518463
24	0x3d50bfe2	0.050964244
25	0x3d0d864d	0.034551907
26	0xbc778dae	-0.015109463
27	0xbc245d0a	-0.010031948
28	0x3c9154fd	0.01774072
29	0x3ce5aa50	0.028035313
30	0x3d0b2a05	0.03397562
31	0xbd012797	-0.031531896
32	0xbd87c703	-0.06629755
33	0xbd6f95b3	-0.058492374
34	0xbd83f1e2	-0.0644262
35	0xbccc82a2	-0.024964634
36	0xbc7f82c6	-0.015595144
37	0x3cb4b732	0.02206001
38	0xbd7d2b6a	-0.06180898
39	0x3d19e748	0.037574083
40	0xbc8ab5a3	-0.016932314
41	0x3c7f072c	0.015565675
42	0x3d29ff3b	0.041503172
43	0xbd91df42	-0.07122661
44	0x3d1a10f4	0.037613824
45	0x3c31d353	0.010853606
46	0x3d313c77	0.043270554
47	0xbd9a3b44	-0.07530835
48	0x3bce8cd9	0.0063034114
49	0xba855e80	-0.0010175258
50	0xbd4c380f	-0.04985815
51	0xbd8318b5	-0.06401197
52	0xbd6dcf5f	-0.058059093
53	0x3b6de620	0.0036300495
54	0xbc2ffbfa	-0.010741228
55	0xbd105570	-0.03523773
56	0xbd5957bb	-0.053062182
57	0x3d3c23f8	0.04593274
58	0x3d193bc4	0.037410513
59	0xbc0dbc13	-0.008650797
60	0x3d0f2174	0.034944013
61	0xbd2f055d	-0.042729724
62	0xbd694221	-0.05694783
63	0xbc909bfc	-0.017652504

kernel f4 [64, 64, 3, 3]
0	0x3e477fd8	0.19482362
1	0x3e473d50	0.19456983
2	0x3e47a3a8	0.19496024
3	0x3e456066	0.19275054
4	0x3e461c61	0.19346763
5	0x3e4796aa	0.19491068
6	0x3e431cd9	0.19053973
7	0x3e46aa84	0.19400984
8	0x3e48033c	0.19532484
9	0x3e468588	0.19386876
10	0x3e47b62e	0.1950309
11	0x3e485722	0.19564489
12	0x3e475785	0.1946698
13	0x3e46c512	0.19411114
14	0x3e47f592	0.19527271
15	0x3e44ec60	0.19230795
16	0x3e4520b8	0.19250762
17	0x3e45be45	0.19310863
18	0x3e4d9335	0.20075686
19	0x3e48cd54	0.19609576
20	0x3e49b95b	0.19699614
21	0x3e485f7f	0.19567679
22	0x3e454290	0.19263673
23	0x3e462c92	0.1935294
24	0x3e492e90	0.19646668
25	0x3e484b5e	0.1956
26	0x3e45646b	0.19276588
27	0x3e453509	0.19258513
28	0x3e44d806	0.19223031
29	0x3e466187	0.19373141
30	0x3e46752f	0.1938064
31	0x3e46cfb4	0.1941517
32	0x3e48a47b	0.19593994
33	0x3e4891e6	0.19586906
34	0x3e46cf24	0.19414955
35	0x3e444616	0.1916736
36	0x3e46bfa7	0.19409047
37	0x3e46d347	0.19416533
38	0x3e47b09a	0.19500962
39	0x3e45dd84	0.19322783
40	0x3e457e8d	0.19286557
41	0x3e478d96	0.19487604
42	0x3e433d81	0.1906643
43	0x3e4763fd	0.19471736
44	0x3e4645ba	0.19362536
45	0x3e46d19d	0.19415899
46	0x3e4738ab	0.19455211
47	0x3e4676ce	0.19381258
48	0x3e463195	0.19354852
49	0x3e4786b2	0.19484976
50	0x3e495f17	0.1966518
51	0x3e442937	0.19156347
52	0x3e464ed9	0.19366015
53	0x3e47ba07	0.19504558
54	0x3e44d9e1	0.19223739
55	0x3e46d930	0.19418788
56	0x3e4a4a81	0.19754983
57	0x3e4643d8	0.19361818
58	0x3e46afda	0.1940302
59	0x3e45ecf0	0.19328666
60	0x3e4604e9	0.1933781
61	0x3e451cf0	0.1924932
62	0x3e487cf0	0.1957891
63	0x3e448e7a	0.19194975
64	0x3e44a1da	0.19202366
65	0x3e47cb93	0.19511251
66	0x3e4774c8	0.19478142
67	0x3e46fd1c	0.19432491
68	0x3e44e390	0.19227433
69	0x3e465256	0.19367346
70	0x3e47ed8a	0.19524208
71	0x3e46cc49	0.19413866
72	0x3e477c26	0.19480953
73	0x3e4a5d17	0.19762073
74	0x3e478866	0.19485626
75	0x3e4a382b	0.19747989
76	0x3e48c7a0	0.19607401
77	0x3e46bd61	0.1940818
78	0x3e4680b6	0.19385037
79	0x3e4683be	0.19386193
80	0x3e46d04c	0.19415396
81	0x3e4698eb	0.19394271
82	0x3e463091	0.19354464
83	0x3e46a243	0.19397835
84	0x3e471027	0.19439755
85	0x3e471e19	0.19445075
86	0x3e4464f8	0.19179142
87	0x3e4679d8	0.19382417
88	0x3e489ca7	0.19591008
89	0x3e46ffbf	0.19433497
90	0x3e45c898	0.19314802
91	0x3e4452f4	0.19172269
92	0x3e45d57f	0.19319724
93	0x3e44aa0c	0.19205493
94	0x3e442bdf	0.1915736
95	0x3e43f42a	0.1913611
96	0x3e45d238	0.19318473
97	0x3e47a647	0.19497024
98	0x3e426055	0.1898206
99	0x3e476e44	0.19475657
100	0x3e469d45	0.19395931
101	0x3e483822	0.19552663
102	0x3e47809d	0.19482656
103	0x3e45ff0f	0.19335578
104	0x3e454560	0.19264746
105	0x3e45945e	0.19294879
106	0x3e4379af	0.19089387
107	0x3e45a7c4	0.19302279
108	0x3e4724be	0.1944761
109	0x3e463e98	0.19359815
110	0x3e4726c8	0.19448388
111	0x3e46356d	0.19356318
112	0x3e44636d	0.19178553
113	0x3e46d1af	0.19415925
114	0x3e4625e2	0.19350389
115	0x3e476fba	0.19476214
116	0x3e463748	0.19357026
117	0x3e456a8e	0.19278929
118	0x3e46df3a	0.19421092
119	0x3e441bcb	0.19151227
120	0x3e4c058e	0.19923994
121	0x3e469803	0.19393925
122	0x3e45596a	0.1927239
123	0x3e44a581	0.1920376
124	0x3e4696cc	0.19393462
125	0x3e455e60	0.19274282
126	0x3e4649ad	0.19364043
127	0x3e45eeaf	0.19329332
128	0x3e47e845	0.19522198
129	0x3e456aa3	0.1927896
130	0x3e458fa1	0.19293071
131	0x3e480636	0.1953362
132	0x3e466eb2	0.19378164
133	0x3e4559f2	0.19272593
134	0x3e45b9a9	0.19309105
135	0x3e480ac7	0.19535361
136	0x3e4674ff	0.19380568
137	0x3e44b661	0.19210197
138	0x3e44318d	0.19159527
139	0x3e488d0f	0.1958506
140	0x3e4567ef	0.19277929
141	0x3e463250	0.1935513
142	0x3e46cd7b	0.19414322
143	0x3e46ada4	0.19402176
144	0x3e44a5a7	0.19203816
145	0x3e47a954	0.19498187
146	0x3e4a29b1	0.19742467
147	0x3e45182e	0.19247505
148	0x3e48305a	0.19549695
149	0x3e49144d	0.1963665
150	0x3e45780f	0.1928408
151	0x3e483951	0.19553114
152	0x3e466ad9	0.19376697
153	0x3e466b67	0.19376908
154	0x3e45f4c5	0.19331653
155	0x3e4621e9	0.19348873
156	0x3e49c4b8	0.19703948
157	0x3e485627	0.19564115
158	0x3e4572ae	0.19282028
159	0x3e46a691	0.19399478
160	0x3e46edd7	0.19426666
161	0x3e46f17d	0.19428058
162	0x3e440cf2	0.19145563
163	0x3e457498	0.19282758
164	0x3e487091	0.1957419
165	0x3e4ad627	0.19808255
166	0x3e472e3c	0.19451231
167	0x3e481f72	0.19543245
168	0x3e4967ef	0.19668554
169	0x3e44504b	0.19171254
170	0x3e4a6c08	0.19767773
171	0x3e463542	0.19356254
172	0x3e440759	0.19143428
173	0x3e44a0f6	0.19202027
174	0x3e452750	0.19253278
175	0x3e467f36	0.19384465
176	0x3e45ab1d	0.19303556
177	0x3e47274d	0.19448586
178	0x3e46d9cb	0.19419019
179	0x3e463a13	0.19358091
180	0x3e449552	0.19197586
181	0x3e47bd61	0.19505836
182	0x3e48d791	0.19613482
183	0x3e44fd3b	0.19237225
184	0x3e523c72	0.2053087
185	0x3e571a2e	0.2100608
186	0x3e44a7b1	0.19204594
187	0x3e456da6	0.19280109
188	0x3e473955	0.19455464
189	0x3e46d5db	0.19417517
190	0x3e4ee4e9	0.2020451
191	0x3e5270ec	0.20550889
192	0x3e4a8c4a	0.19780079
193	0x3e4597ae	0.19296142
194	0x3e49335f	0.19648503
195	0x3e5076b8	0.20357788
196	0x3e4dd251	0.2009976
197	0x3e4be80c	0.19912738
198	0x3e46b8a0	0.19406366
199	0x3e4749a4	0.19461685
200	0x3e48923f	0.19587038
201	0x3e479b37	0.19492804
202	0x3e4670de	0.19378993
203	0x3e4714be	0.19441506
204	0x3e45d79e	0.19320533
205	0x3e46089f	0.19339226
206	0x3e46df75	0.1942118
207	0x3e4c0f9c	0.1992783
208	0x3e43d6b3	0.1912487
209	0x3e44a4ab	0.19203441
210	0x3e53bab9	0.20676698
211	0x3e530617	0.20607792
212	0x3e50df4c	0.20397681
213	0x3e42708d	0.18988247
214	0x3e49d3c1	0.19709684
215	0x3e511ea8	0.2042185
216	0x3e45c6c8	0.1931411
217	0x3e460cad	0.19340773
218	0x3e465095	0.19366677
219	0x3e4f4c59	0.20243968
220	0x3e47ed5c	0.19524139
221	0x3e46746e	0.19380352
222	0x3e4ed063	0.2019668
223	0x3e4ad754	0.19808704
224	0x3e46738b	0.19380014
225	0x3e48c124	0.19604927
226	0x3e46e267	0.19422303
227	0x3e45ea3e	0.19327638
228	0x3e4586b6	0.1928967
229	0x3e463478	0.19355953
230	0x3e47d86f	0.19516157
231	0x3e40bcb5	0.18821986
232	0x3e443f9f	0.19164895
233	0x3e47a468	0.1949631
234	0x3e2e3ecb	0.17016141
235	0x3e11d01b	0.14239542
236	0x3e4126a8	0.18862402
237	0x3e5a4037	0.21313559
238	0x3e2f28a0	0.17105341
239	0x3e0f24ab	0.13978831
240	0x3e1201f1	0.14258553
241	0x3e63d80f	0.22250389
242	0x3e399566	0.18123397
243	0xbeab791e	-0.33490843
244	0xbe09450d	-0.13405247
245	0x3e5866c5	0.21132953
246	0xbdbd21af	-0.0923494
247	0xbe7fb624	-0.24971825
248	0xbdde7eb8	-0.108640134
249	0x3e521975	0.20517524
250	0x3d9d87db	0.07691928
251	0x3e9d1c8f	0.3068585
252	0x3e451d94	0.19249564
253	0x3e49cf2f	0.1970794
254	0x3e4b5dd9	0.19860019
255	0x3e439764	0.1910072

weight f4 [128, 576]
0	0x3c20a12c	0.009804051
1	0x3d846a74	0.06465617
2	0xbc91f7ad	-0.017818296
3	0xbcc0cbe4	-0.023534723
4	0xbc69b466	-0.014264202
5	0xbe23c457	-0.15992866
6	0x3cfb71bb	0.03069388
7	0xbe3b2c91	-0.1827872
8	0x3e2730e5	0.16327246
9	0xbd102783	-0.03519393
10	0xbc87b318	-0.01656489
11	0x3838fafb	4.4102762e-05
12	0x3d997d58	0.074946105
13	0x3d3287b5	0.04358645
14	0xbe03757e	-0.12837788
15	0x3dc7c699	0.09754676
16	0xbc8a080e	-0.016849544
17	0x3da62157	0.08111828
18	0x3b7274d7	0.0036995912
19	0x3d7e5ee6	0.06210222
20	0x3d9fc61e	0.0780146
21	0x3d0a7c7f	0.033810135
22	0x3cbb647d	0.022875065
23	0xbdba2058	-0.090882
24	0x3c731e57	0.014838777
25	0xbd72c600	-0.05927086
26	0xbcd1417c	-0.02554392
27	0x3a3e2d93	0.0007254716
28	0xbc956339	-0.01823579
29	0x3d404d2b	0.046948593
30	0x3c86e64b	0.016467234
31	0x3d835e34	0.06414452
32	0xba11e7f1	-0.0005565873
33	0x3d20f09e	0.03929197
34	0xbdd46e46	-0.103725955
35	0xbdd67669	-0.10471804
36	0x3d89aa5a	0.06721945
37	0x3aa844ff	0.0012837945
38	0x3dc91abe	0.09819554
39	0x3c92b1e8	0.017907098
40	0xbc18009c	-0.009277489
41	0xbd28324e	-0.0410636
42	0x3d1741d2	0.036928006
43	0xbe27ca8c	-0.16385859
44	0xbde7321f	-0.11288857
45	0x3c6872b3	0.014187503
46	0xbd38e424	-0.045139447
47	0x3cedf78f	0.02904871
48	0x3d37142a	0.044696964
49	0x3c842e7f	0.016135452
50	0x3ca13111	0.019676717
51	0x3d9f2049	0.0776983
52	0xbdf95392	-0.12174143
53	0xbe252618	-0.16127813
54	0xbc9ce2ae	-0.019151058
55	0x3c936fe6	0.017997693
56	0xbd79a9b6	-0.060952865
57	0x3d65e4ba	0.056126334
58	0xbbb5a05f	-0.0055427994
59	0xbc57664e	-0.01314695
60	0x3cf9fb90	0.030515462
61	0xbe32410c	-0.17407626
62	0xbd1ccacc	-0.03827934
63	0x3ce9f3c9	0.028558629
64	0x3cfd31df	0.03090757
65	0x3cd318e3	0.025768703
66	0x3c1db60f	0.009625926
67	0x3d11632f	0.03549498
68	0xbde3fcf3	-0.111322306
69	0x3e28c920	0.16482973
70	0xbd322060	-0.043487906
71	0xbd039cd0	-0.03213197
72	0x3c95fc36	0.01830874
73	0x3d457787	0.048209693
74	0x3c2a8f96	0.01041021
75	0x3da4267c	0.08015153
76	0x3c3d1da2	0.01154271
77	0xbd9c403e	-0.07629441
78	0x3d9d5d68	0.076838315
79	0xbe102b62	-0.14079049
80	0xbe25c026	-0.1618658
81	0x3d34c759	0.044135425
82	0x3d1e1e7c	0.03860329
83	0x3da58272	0.08081521
84	0xbd112d1b	-0.035443407
85	0xbd1b1ff7	-0.03787228
86	0xbcd151e3	-0.025551742
87	0xbc50a0b6	-0.012733629
88	0xbe352be3	-0.17692523
89	0xbde9337c	-0.11386773
90	0x3cf20f80	0.029548407
91	0xbd4c97cd	-0.049949456
92	0x3e2095a7	0.15682088
93	0xbca068e4	-0.019581266
94	0x3d4d355e	0.050099723
95	0xbc3eb28c	-0.011639249
96	0x3d03e67c	0.03220223
97	0xbd988cf0	-0.07448757
98	0xbd304a9f	-0.043039914
99	0xbd67cb20	-0.0565902
100	0x3daa2e02	0.083095565
101	0x3dfc475d	0.12318299
102	0x3d655196	0.05598601
103	0x3d43f750	0.047843277
104	0xbccfdf0f	-0.025374917
105	0xbbbabc26	-0.0056986986
106	0x3c2da82c	0.010599177
107	0x3e0099ef	0.12558721
108	0xbca33238	-0.019921407
109	0x3d424250	0.04742652
110	0x3cc31d81	0.02381778
111	0x3db63b27	0.08898001
112	0x3c0851e2	0.008320304
113	0xbd1aa38a	-0.03775362
114	0x3c6a80c2	0.014312925
115	0xbe518728	-0.20461714
116	0xbe48740b	-0.19575517
117	0xbc1d38f2	-0.009596096
118	0x3ce399b9	0.027783262
119	0x3df619b4	0.12016621
120	0xbd88a8ba	-0.06672807
121	0x3c03ef78	0.008052699
122	0xbe019ed4	-0.12658244
123	0x3e136c66	0.1439682
124	0xbd97550f	-0.073892705
125	0xbde89b43	-0.11357739
126	0x3d44b03d	0.048019636
127	0x3d01a7bc	0.031654105
128	0x3d6f0e2d	0.05836313
129	0xbd02eb74	-0.031962827
130	0x3d696431	0.056980316
131	0xbd565940	-0.05233121
132	0x3cf965b1	0.030443998
133	0xbdacad6a	-0.084315136
134	0x3cac8a9e	0.021062192
135	0x3c69c05f	0.014267056
136	0x3d979999	0.07402343
137	0x3d8840ff	0.06653022
138	0xbbd24370	-0.0064167306
139	0x3d5d4029	0.054016266
140	0xbd60ab4b	-0.054850858
141	0x3bfe7329	0.007765193
142	0xbdc036b5	-0.093854345
143	0xbc0bc85c	-0.008531656
144	0x3d6e9723	0.058249604
145	0xbcadd700	-0.021220684
146	0x3dc46d93	0.09591212
147	0x39b52ca4	0.0003455627
148	0x3d2c15e2	0.042013057
149	0xbd22f71b	-0.03978644
150	0x3c671e60	0.014106363
151	0xbe35770d	-0.17721196
152	0xbda2a941	-0.07942439
153	0xbd7bf6f5	-0.061514813
154	0xb9b30050	-0.00034141773
155	0xbdb9a5be	-0.09064816
156	0x3c699461	0.014256568
157	0x3db80efd	0.08987234
158	0xbd3584c9	-0.044316087
159	0xbc1d0dda	-0.009585822
160	0xbe267725	-0.16256388
161	0xbd284c05	-0.041088123
162	0x3d40e95f	0.04709756
163	0xbbe04a58	-0.0068448
164	0x3d9c5cb3	0.076348685
165	0x3da18380	0.0788641
166	0x3d510bfc	0.05103682
167	0xbc70950a	-0.014683971
168	0x3c70696d	0.014673573
169	0xbe4b6397	-0.1986221
170	0xbe0f2fe6	-0.13983116
171	0x3d1e0bb8	0.038585395
172	0x3cc5407d	0.024078602
173	0x3d054745	0.03253867
174	0x3c52121f	0.012821703
175	0x3c054eae	0.0081364345
176	0xbd457b93	-0.048213553
177	0x3d98bf39	0.07458348
178	0xbd7f1b30	-0.062281787
179	0xbdceeb88	-0.10103518
180	0x3d0d38b8	0.03447792
181	0x3d9595df	0.07303976
182	0xbd1d63d0	-0.038425267
183	0x3d27b080	0.040939808
184	0x3d4e8b72	0.050425954
185	0x3c872ed3	0.01650182
186	0xbddb1811	-0.1069795
187	0xbe1d887d	-0.15384097
188	0x3e0d89fd	0.1382217
189	0xb8e99d1e	-0.00011139571
190	0x3cb38855	0.021915594
191	0x3682b153	3.894945e-06
192	0xbd31240b	-0.043247264
193	0x3d6cf298	0.057848543
194	0xbacb1554	-0.0015494027
195	0x3d815397	0.063147716
196	0xbe419e00	-0.18907928
197	0xbdb62243	-0.08893254
198	0x3d4fe3ad	0.050754238
199	0x3e0c49f5	0.13700087
200	0x3ca65213	0.020302808
201	0xbdcf64bb	-0.10126635
202	0x3d250a8b	0.040293258
203	0xbbbf03cf	-0.0058293114
204	0xbcda7c51	-0.026670607
205	0xbe318ca4	-0.17338806
206	0xbbfe70fd	-0.007764934
207	0x3d75d676	0.06001898
208	0x3c7f877f	0.01559627
209	0x3d83f4d1	0.064431794
210	0xbc997925	-0.018734524
211	0x3c97116a	0.01844092
212	0x3df10183	0.117678665
213	0xbceb8b4b	-0.028752944
214	0xbe058d11	-0.13042094
215	0x3d158434	0.03650303
216	0x3b4ac4c6	0.003094004
217	0xbb04f677	-0.0020288506
218	0x3d6fe771	0.05857033
219	0x3da047e4	0.07826212
220	0xbd447cef	-0.04797071
221	0x398c6d7d	0.00026784456
222	0x3d8c8de0	0.06862998
223	0xbd510617	-0.0510312
224	0xbe34837a	-0.1762828
225	0x3d289214	0.041154936
226	0x3d0e40ed	0.034729887
227	0xbc222ed4	-0.00989886
228	0x3d4f9bba	0.05068562
229	0x3dde3d65	0.10851554
230	0xbcfb7a36	-0.030697923
231	0xbd0c7fc7	-0.034301545
232	0xbe4fdcba	-0.20299044
233	0xbdba525a	-0.090977386
234	0xbd04597a	-0.032311894
235	0x3caed5bc	0.02134215
236	0x3dac4701	0.084119804
237	0x3d4ad426	0.049518727
238	0xbb3ed1df	-0.0029116792
239	0x3bc19c96	0.005908559
240	0xbd3a587a	-0.045494534
241	0xbe020f17	-0.12701069
242	0xbe60bf36	-0.21947941
243	0xbd0fa67e	-0.03507089
244	0x3c303d83	0.010756853
245	0x3daeae32	0.08529319
246	0x3c3cd018	0.011524223
247	0x3d0d3739	0.034476493
248	0x3ddc1f12	0.10748114
249	0x3b0cca93	0.0021483048
250	0x3c84eec8	0.016227141
251	0x3d68e3d8	0.056857914
252	0x3d28531c	0.041094884
253	0x3d258565	0.040410418
254	0x3d04f16a	0.032456793
255	0xbd207494	-0.039173678

bias f4 [128]
0	0x3ed7ad81	0.4212456
1	0xbc5e531b	-0.013569619
2	0xbb417db8	-0.0029524397
3	0xbdf1f9cd	-0.11815224
4	0x3f02986a	0.51013815
5	0xbd04128d	-0.032244254
6	0xbbf138e4	-0.007361518
7	0x3cae5e4f	0.021285204
8	0xbf86e477	-1.0538472
9	0xbd5cfbf9	-0.053951237
10	0xbd1c56ce	-0.03816872
11	0xbd01fa3b	-0.03173278
12	0x3f7ea463	0.99469584
13	0xbb081c46	-0.0020768805
14	0xbe08f877	-0.13376032
15	0xbcaf733f	-0.021417258
16	0xbd40782e	-0.046989612
17	0x3f048951	0.5177203
18	0xbd37fb76	-0.044917546
19	0xbce121e2	-0.027481977
20	0x3bd64e1b	0.0065400726
21	0xbd39210e	-0.04519754
22	0xbcc0b49e	-0.023523625
23	0x3fa681a1	1.300831
24	0xbee314ea	-0.44351894
25	0xbee982e0	-0.45607662
26	0xbd58ab9c	-0.052898034
27	0xbdde4fdd	-0.108550765
28	0xbee977c5	-0.4559919
29	0x3d73206a	0.059357084
30	0xbea4b26d	-0.32167378
31	0x3f44711a	0.7673508
32	0xbea8f54a	-0.3299964
33	0xbd8699fd	-0.0657234
34	0x3b8d97b2	0.004321062
35	0xbba07e9b	-0.004897905
36	0x3ee76969	0.4519761
37	0xbe804292	-0.2505079
38	0xbd2b96ba	-0.04189179
39	0xbbb0710b	-0.0053845695
40	0xbcb56bb9	-0.022146093
41	0x3e349b95	0.17637475
42	0x3ddee008	0.10882574
43	0x3e6ba6f3	0.23012905
44	0xbce73c70	-0.028227061
45	0xbd3df689	-0.046377692
46	0xbd75ff8b	-0.060058158
47	0xbf457a80	-0.77140045
48	0x3eafea00	0.34358215
49	0xbe295456	-0.16536078
50	0xbc8708d9	-0.016483711
51	0xbc3a5451	-0.011372642
52	0xbec6a1f3	-0.38795432
53	0x3b5a008c	0.0033264486
54	0xbc14f46c	-0.009091478
55	0xbeac189e	-0.3361253
56	0xbd241aa4	-0.04006447
57	0x3f00a94a	0.50258315
58	0xbc38c61d	-0.011277703
59	0xbc2e437b	-0.010636206
60	0xbbcc10d2	-0.006227591
61	0x3f1e9abf	0.61954874
62	0x3e15a1f7	0.14612566
63	0x3ec31dee	0.38108772
64	0xbe771cce	-0.24132082
65	0xbea8674f	-0.32891318
66	0xbf1fa600	-0.6236267
67	0x3eee1628	0.4650128
68	0xbd5f01ad	-0.054444958
69	0xbd06e988	-0.032937557
70	0xbc274a7a	-0.010210628
71	0x3cf57a4d	0.029965544
72	0xbd02b947	-0.031914975
73	0xbc29bdf9	-0.010360234
74	0x3f0839f1	0.5321341
75	0xbcccd6b1	-0.025004717
76	0x3f1b0660	0.605566
77	0xbd0fe3d1	-0.035129372
78	0xbb5a43ac	-0.0033304496
79	0x3ead4309	0.33840206
80	0xbd3f33fc	-0.046680436
81	0xbec10b5f	-0.37703988
82	0x3d9dcbbe	0.07704876
83	0x3f4fa4d0	0.8111086
84	0xbe2258ff	-0.15854262
85	0x3f0e866e	0.55673873
86	0xbc9fbc62	-0.019499008
87	0xbd042ba0	-0.032268167
88	0xbc8ae66b	-0.016955575
89	0x3f89407a	1.0722802
90	0xbd269cc7	-0.04067686
91	0x3e732d6a	0.23747793
92	0xbd2346f1	-0.039862577
93	0x3e01eabe	0.12687203
94	0xbe40fee2	-0.1884723
95	0x3e5885ca	0.21144786
96	0x3f4c6b32	0.7985107
97	0xbbc2d421	-0.005945698
98	0xbe0dc906	-0.13846216
99	0x3f53eac3	0.8278009
100	0xbbb86200	-0.005626917
101	0xbd02153f	-0.031758543
102	0x3b818148	0.003952179
103	0xbea1b6ba	-0.31584722
104	0xbd557ce8	-0.052121073
105	0x3d91cbbf	0.071189396
106	0x3e583440	0.21113682
107	0xbf11b2a3	-0.56913203
108	0xbf1b78df	-0.6073131
109	0x3dc0938f	0.094031446
110	0x3f8194fc	1.0123591
111	0xbcfe4c50	-0.031042248
112	0x3e7ed509	0.24885954
113	0xbd9ca403	-0.0764847
114	0xbc2f64cd	-0.010705185
115	0x3dbe217a	0.09283729
116	0xbcb7c875	-0.022434453
117	0xbb94ea16	-0.004544507
118	0x3f5e6cc0	0.8688469
119	0xbc61e991	-0.013788597
120	0xbeab4b82	-0.33456045
121	0xbd57143a	-0.052509524
122	0xbd0dcfe1	-0.034622077
123	0xbee0bf58	-0.43895984
124	0x3dd8b988	0.10582262
125	0x3f855667	1.0416993
126	0xbe8f3876	-0.27972764
127	0x3f865276	1.0493915

weight f4 [10, 128]
0	0xbedeac04	-0.43490613
1	0x3d8e0be7	0.06935864
2	0xbbde5ccf	-0.006785966
3	0xbdc2399a	-0.09483643
4	0x3e08427a	0.13306609
5	0xbd78bf95	-0.060729582
6	0x3c65ea74	0.014032949
7	0x3dadb9ee	0.08482729
8	0x3dbf10a8	0.09329349
9	0x3da6cc1c	0.081443995
10	0x3cef5ff7	0.029220564
11	0x3d13fa93	0.036127638
12	0xbe1fb683	-0.15596966
13	0xbc53283c	-0.012888011
14	0x3da4a579	0.08039374
15	0xbd5caa2f	-0.053873237
16	0x3d3b9d4a	0.0458043
17	0x3e3dfc80	0.18553352
18	0x3d6f5690	0.05843216
19	0x3cdf07e8	0.02722545
20	0xbd278092	-0.0408941
21	0x3e0487bf	0.12942408
22	0x3da1e994	0.079058796
23	0xbec32869	-0.38116768
24	0x3dd9924f	0.10623609
25	0xbeb98737	-0.36235973
26	0xbe037536	-0.12837681
27	0xbd90e88a	-0.07075603
28	0xbec04b49	-0.37557438
29	0xbda835dd	-0.082133986
30	0x3dccab91	0.09993661
31	0x3d59a385	0.05313446
32	0xbdd6fda0	-0.10497594
33	0x3d582259	0.05276713
34	0x3bfe95ec	0.007769337
35	0xbc41485e	-0.011797039
36	0x3ddca0c2	0.107728496
37	0x3daf24a7	0.08551913
38	0xbd60bbdb	-0.054866653
39	0xbd833166	-0.064059064
40	0x3d31e7fa	0.04343412
41	0xbca927ff	-0.020648954
42	0xbcfa11be	-0.030526038
43	0xbdb289b9	-0.08717675
44	0xbd58d486	-0.052937053
45	0x3ccc0dd4	0.024908938
46	0xbde36c14	-0.11104599
47	0x3d4f8e7b	0.05067299
48	0xbd59aed5	-0.05314525
49	0x3df8aea9	0.12142689
50	0x3d15b6b0	0.036551178
51	0xbd204ae0	-0.039133906
52	0x3d752d16	0.05985745
53	0x3d9d179e	0.0767052
54	0x3d59ae20	0.053144574
55	0xbe3af9df	-0.18259381
56	0xba9df105	-0.0012049979
57	0xbe49b872	-0.19699267
58	0x3bf7133c	0.0075401347
59	0xbc8a97a2	-0.016918007
60	0xbc5cd4b9	-0.013478451
61	0xbf17ca2f	-0.5929288
62	0xbeaabf4d	-0.33349076
63	0xbebfb843	-0.37445268
64	0x3df53435	0.11972848
65	0x3ddfdd0b	0.109308325
66	0x3e15c543	0.1462603
67	0xbd4840a3	-0.048889767
68	0x3b78f1f5	0.0037986015
69	0x3cab878f	0.020938663
70	0x3d9afd1d	0.07567809
71	0x3e22e609	0.15908064
72	0xba31880d	-0.00067722873
73	0x3cbce4f5	0.023058394
74	0x3cf7679b	0.03020077
75	0xbc2028ff	-0.009775399
76	0xbe1aae83	-0.15105633
77	0xbc450b1d	-0.012026575
78	0x3d975ca1	0.073907144
79	0x3d31defc	0.043425545
80	0x3aef9bd6	0.0018280696
81	0xbd3793b5	-0.0448186
82	0xbcb5b473	-0.022180771
83	0xbed7280c	-0.4202274
84	0xbebb8bfc	-0.36630237
85	0xbeee8148	-0.4658301
86	0xbcc1cf2d	-0.02365836
87	0xba42157b	-0.00074037135
88	0xbd6f7d21	-0.05846894
89	0xbcb0a7b8	-0.02156435
90	0x3cebaa42	0.028767709
91	0xbe13cab8	-0.144328
92	0xbd85d92a	-0.065355614
93	0xbd23d452	-0.039997406
94	0xbe40cf82	-0.18829158
95	0xbc94f2b7	-0.018182142
96	0x3dcd16e1	0.100141294
97	0x3d7de520	0.06198609
98	0x3dd00553	0.101572655
99	0x3daaa447	0.08332115
100	0xbda5cd3b	-0.08095785
101	0x3d8e93c5	0.069617786
102	0x3d889272	0.06668557
103	0x3e371939	0.17880715
104	0xbd5be66e	-0.05368655
105	0x3dbc8299	0.09204597
106	0xbe1ce487	-0.15321551
107	0x3d9cf73e	0.07664345
108	0x3d486b27	0.048930313
109	0x3e0c83d6	0.13722166
110	0xbe780094	-0.2421897
111	0x3d89cb13	0.067281865
112	0x3d04b297	0.03239688
113	0x3d4ebccf	0.05047303
114	0xbd4221d4	-0.047395542
115	0x3c958b66	0.018254947
116	0xbd92c01b	-0.071655475
117	0x3d926234	0.07147637
118	0xbd149ee0	-0.036284328
119	0xbd5c69a4	-0.053811684
120	0xbddc6670	-0.10761726
121	0xbe1683e9	-0.14698757
122	0xbcf8113e	-0.03028166
123	0x3cd0d603	0.025492674
124	0xbca4921d	-0.020089203
125	0xbd578b7d	-0.05262326
126	0x3ce95270	0.028481692
127	0xbe092d0b	-0.13396089
128	0xbe4a5c8f	-0.19761871
129	0x3cd0055a	0.025393177
130	0x3d9c6270	0.07635963
131	0xbd6a4b16	-0.057200514
132	0x3e01a1c3	0.12659363
133	0x3d24e27a	0.040255047
134	0x3cb44d20	0.022009432
135	0xbc9a88f0	-0.018864125
136	0xbeb3de2e	-0.35130447
137	0xbd035436	-0.03206273
138	0x3ce8bf5c	0.02841156
139	0x3d8a2ac0	0.06746435
140	0x3e3f8a08	0.18704998
141	0xbdbdae28	-0.09261733
142	0xbd25e87d	-0.04050492
143	0xbc522cb4	-0.012828041
144	0x3c90fb0a	0.01769783
145	0x3dff45ae	0.12464462
146	0xbdad049f	-0.08448147
147	0xbc72941a	-0.014805818
148	0xbd44d4a2	-0.048054345
149	0xbc1472f6	-0.009060612
150	0x3c6ec40b	0.0145731075
151	0x3f62958f	0.8850946
152	0xbc91ae58	-0.017783329
153	0xbd856e80	-0.06515217
154	0xbe0ee9b8	-0.13956344
155	0xbd93334f	-0.07187521
156	0xbe73b0c9	-0.23797907
157	0xbd960479	-0.07325072
158	0x3d96d3e6	0.07364635
159	0x3e50e7b6	0.2040089
160	0xbd693af1	-0.056940977
161	0xbcf84533	-0.030306434
162	0x3d35383e	0.04424309
163	0xbd569019	-0.052383516
164	0x3dd9b704	0.106306106
165	0xbe3b85f5	-0.1831282
166	0x3d6e3171	0.05815262
167	0x3d0f2f92	0.034957476
168	0xbd740805	-0.05957796
169	0xbd91833d	-0.0710511
170	0xbd79c4bc	-0.060978636
171	0x3bc6a435	0.0060620555
172	0x3c5ffb98	0.0136708245
173	0x3c9bf275	0.019036511
174	0x3d94dca3	0.072686456
175	0xbe34922e	-0.17633888
176	0x3cada977	0.021198971
177	0xbe3905a4	-0.18068558
178	0x3ca55ddf	0.020186363
179	0x3d9640af	0.07336556
180	0x3d34ea98	0.04416904
181	0x3cdf2bdd	0.027242595
182	0xbca02730	-0.019549936
183	0xbe0676fd	-0.13131328
184	0xbcaedb29	-0.021344738
185	0x3e42d786	0.19027528
186	0x3b900336	0.004394914
187	0x3d75424b	0.059877675
188	0xbdb45aae	-0.08806358
189	0x3e472eff	0.19451521
190	0x3d31a820	0.043373227
191	0xbd5c4b89	-0.053782973
192	0xbe1aa675	-0.15102561
193	0x3d34c518	0.044133276
194	0xbe7e21f4	-0.2481764
195	0x3db2d8d9	0.08732767
196	0x3c820a5e	0.015874084
197	0x3d8aa189	0.06769092
198	0x3cd21f10	0.025649577
199	0x3d5092ab	0.050921123
200	0x3d2583fd	0.040409077
201	0x3d06a726	0.03287425
202	0x3d2aa0a0	0.04165709
203	0x3c21be9f	0.009872108
204	0x3df94f3f	0.12173318
205	0xbcae9392	-0.021310601
206	0xbda68580	-0.08130932
207	0xbc81cddc	-0.015845232
208	0xbd87f7d2	-0.06639065
209	0xbe8c43cf	-0.27395484
210	0x3c80a6fa	0.01570462
211	0x3ec14ef1	0.3775554
212	0xbd9488fa	-0.07252689
213	0x3e229514	0.15877181
214	0xbd64a533	-0.05582161
215	0x3d75d7ab	0.06002013
216	0x3d032bc8	0.032024175
217	0x3e87cbfe	0.2652282
218	0xbdb339e1	-0.08751274
219	0x3d5e370b	0.05425171
220	0xbd4ba375	-0.04971643
221	0x3d9629f9	0.073322244
222	0x3d962fc8	0.07333332
223	0x3e09ed5d	0.13469453
224	0x3e775af1	0.24155785
225	0xbd837aa8	-0.06419879
226	0x3e069473	0.13142566
227	0x3dbeb600	0.093120575
228	0x3d8d77c2	0.069076076
229	0xbd9af919	-0.07567043
230	0x3d3d8fe7	0.046279814
231	0xbd198af1	-0.03748602
232	0x3d12c4ec	0.03583233
233	0x3d00049d	0.0312544
234	0x3dfc60cc	0.1232315
235	0xbdb7d190	-0.08975518
236	0xbd9e4316	-0.077276394
237	0xbd5db81d	-0.054130662
238	0x3f20b451	0.6277514
239	0xbc8c88a7	-0.017155005
240	0xbd3afa71	-0.045648996
241	0x3d9e611c	0.07733366
242	0x3d3dbd21	0.046322946
243	0x3d6155a2	0.055013306
244	0x3d3eb530	0.046559513
245	0x3d378d55	0.04481252
246	0x3e1e5c9e	0.15465018
247	0x3cb8ef6f	0.022575108
248	0xbd2f3837	-0.04277822
249	0xba17ba5c	-0.00057879626
250	0x3c141d6a	0.009040216
251	0xbe33c70b	-0.17556398
252	0xbbcb4541	-0.006203324
253	0x3f4e2405	0.8052371
254	0xbe64fa89	-0.22361197
255	0x3eef8221	0.46778968

bias f4 [10]
0	0xbec9e89c	-0.3943528
1	0x3f5f5e66	0.87253416
2	0xbe2544d4	-0.16139537
3	0xbea4caf2	-0.32186085
4	0x3daf3950	0.08555853
5	0xbedbe2f0	-0.42946577
6	0xbdb38a4e	-0.08766614
7	0x3dec97b5	0.11552373
8	0x3d9df545	0.07712797
9	0x3dec8e9d	0.11550639

feedback f4 [1000, 10]
0	0xc0a9dcd4	-5.3082066
1	0xc0682e3a	-3.6278214
2	0x3ee36502	0.44413
3	0xc095ff71	-4.687432
4	0xc0ef7764	-7.483324
5	0xc0a80219	-5.250256
6	0xc1648e0b	-14.284678
7	0x4152538b	13.145396
8	0xc08dc8f2	-4.4307795
9	0xbf1bfea8	-0.6093545
10	0x3fb54401	1.4161378
11	0xc0124892	-2.2856793
12	0xc00f0f7e	-2.2353206
13	0xc143eb46	-12.24494
14	0x40ab52e1	5.353867
15	0xc07d0143	-3.953202
16	0x41650e3d	14.315976
17	0xc16bafbf	-14.730407
18	0xbf352685	-0.707619
19	0xc0897f1e	-4.296767
20	0xc0782db0	-3.8777885
21	0x40e32dda	7.099347
22	0xc014ae55	-2.3231404
23	0xc063c9ce	-3.5591922
24	0xbe72a946	-0.23697385
25	0xc012baa6	-2.292642
26	0xc04dd7de	-3.2163005
27	0xc0889a79	-4.2688565
28	0xbff29d71	-1.8954297
29	0xbf1016e8	-0.5628495
30	0xc09e79fe	-4.9523916
31	0x40e212fc	7.0648174
32	0xc002e162	-2.0450063
33	0xc059f5db	-3.4056308
34	0x3e11ce36	0.1423882
35	0xc0322490	-2.7834816
36	0xc07fc849	-3.9965994
37	0xc047de51	-3.122944
38	0xc0222503	-2.533509
39	0xbe791422	-0.24324086
40	0x4124b05b	10.293056
41	0xbf893417	-1.0719022
42	0xc05b1091	-3.4228861
43	0xc10408bd	-8.252133
44	0xc1118c62	-9.096773
45	0x3da824b0	0.082101226
46	0xbf86040c	-1.0469985
47	0xc116d718	-9.427513
48	0x3fead297	1.8345517
49	0xc02b8a11	-2.680302
50	0xc046395c	-3.097251
51	0x40d60d14	6.6890965
52	0xc0088077	-2.1328409
53	0xc04ce91b	-3.2017276
54	0xbf703328	-0.9382806
55	0xc006704d	-2.1006043
56	0xc02fd04d	-2.7470887
57	0xc08ac257	-4.336223
58	0xbf4f1ce9	-0.8090349
59	0xbf54cdcc	-0.8312652
60	0xc02fbb32	-2.7458005
61	0x3f6fa5ec	0.9361255
62	0x4102b8af	8.170089
63	0xbf6b5a95	-0.9193509
64	0xc0a8620a	-5.2619677
65	0xc12d1920	-10.818634
66	0xc0ffbee3	-7.9920516
67	0x3fe3cb7b	1.7796472
68	0xc064c2b3	-3.5743835
69	0xc0cb75ff	-6.358154
70	0xc15b681c	-13.712917
71	0xc03ceb62	-2.9518666
72	0x3f951a1e	1.1648595
73	0x4138ab30	11.541794
74	0xc0e6e4b5	-7.2154183
75	0xbfbe59a2	-1.4871104
76	0xc1948df8	-18.56932
77	0x40aac647	5.336704
78	0xbf4072d5	-0.7517522
79	0xc054a0fb	-3.3223255
80	0xc0beb74c	-5.959875
81	0x3edf7124	0.43641007
82	0x3de01760	0.109419584
83	0xc11cc826	-9.798864
84	0x412fbee3	10.984103
85	0xc09e4158	-4.9454765
86	0x406ca4e2	3.6975636
87	0xc0111170	-2.2666893
88	0xc032f407	-2.7961442
89	0xbee3723d	-0.44423094
90	0xc103fa6b	-8.248637
91	0x3f2633c5	0.64922744
92	0x40ee0c18	7.4389763
93	0x3fb334c8	1.4000483
94	0xbfb1acde	-1.388088
95	0xc117b3d8	-9.481407
96	0xc122b5a4	-10.169346
97	0x40a7aae5	5.239611
98	0xc09f4f93	-4.9784636
99	0xc08cc63a	-4.3991976
100	0x401251aa	2.2862344
101	0xc0467636	-3.100965
102	0x40c77a97	6.2337146
103	0x3f2ecf17	0.68284744
104	0xc1079b15	-8.475362
105	0xc09c1b09	-4.8783
106	0xc0e675f9	-7.201901
107	0x3df54d95	0.11977688
108	0x3ebaec29	0.365083
109	0xc0c47b24	-6.140032
110	0xc15319dd	-13.193814
111	0xc00f58a8	-2.2397861
112	0x3fa341a0	1.2754402
113	0x41452218	12.320824
114	0xc0dd17d1	-6.9091573
115	0xc00df44e	-2.2180362
116	0xc18b838d	-17.439234
117	0x403bb1d4	2.9327288
118	0xbebd9c64	-0.3703338
119	0xc0a857c0	-5.2607117
120	0xc0c47b82	-6.1400766
121	0x3dea92f8	0.11453813
122	0xbfe55cca	-1.7918942
123	0xc104ec2c	-8.307659
124	0x41136339	9.211724
125	0xc0205c68	-2.50564
126	0xbd16771c	-0.036734685
127	0xbf2cd1d8	-0.67507696
128	0xbf6340e5	-0.88770896
129	0x3ff3f2b4	1.9058442
130	0xc02b506a	-2.676783
131	0xc05a25c6	-3.4085555
132	0xc0907501	-4.5142827
133	0xc0700312	-3.7501874
134	0x3e1b6d50	0.15178418
135	0x40f8d05b	7.775434
136	0xc0546258	-3.3185024
137	0xbfc363cd	-1.5264832
138	0x3fcfb796	1.6227901
139	0xbd733886	-0.059380077
140	0x3f9023ad	1.1260887
141	0xc08bcc7a	-4.3687105
142	0xbf1a914d	-0.6037796
143	0xc0dc6faa	-6.888631
144	0x3fd5e689	1.6710979
145	0xbbb50300	-0.0055240393
146	0x41090c24	8.565464
147	0xc1481c6f	-12.506942
148	0x4011d51d	2.2786324
149	0xc041de45	-3.0291913
150	0xc1073d8e	-8.452528
151	0x3ff862ab	1.9405111
152	0x4101e4f5	8.118398
153	0x3f9524a4	1.1651807
154	0xbf6c58a4	-0.92322755
155	0xc1403cc0	-12.014832
156	0xc1387ba8	-11.5301895
157	0x410031d3	8.012164
158	0xc0aad485	-5.3384423
159	0xc0d9e2d3	-6.8089385
160	0x40c65eb0	6.1990585
161	0xc079b572	-3.9016995
162	0xbed3a9be	-0.4134044
163	0xc0d000fb	-6.5001197
164	0x3e8acfa4	0.27111542
165	0x400f6182	2.2403264
166	0x40764ef8	3.8485699
167	0xc0ec00af	-7.3750834
168	0x3f551970	0.8324194
169	0xbf83a329	-1.0284168
170	0xbfb2129e	-1.3911932
171	0x40ac7ae6	5.3900023
172	0xbfbfaef0	-1.4975262
173	0xc06ce7ea	-3.701655
174	0xbf1ade7a	-0.6049572
175	0xc00feb5c	-2.2487402
176	0xbf5417ce	-0.82848823
177	0xc05e774d	-3.4760315
178	0x3ef1116f	0.47083613
179	0xbf5c34d2	-0.860181
180	0xc0e5a2b2	-7.1761103
181	0x3f241d08	0.641068
182	0x41095663	8.5835905
183	0x403b9d0e	2.9314609
184	0xc06d422e	-3.7071643
185	0xc116bf1e	-9.421659
186	0xc12733c6	-10.45014
187	0x408d9159	4.4239926
188	0xc093b725	-4.6161065
189	0xc0e8c448	-7.27396
190	0xc119008b	-9.562633
191	0x3fcc1cd0	1.5946293
192	0x410380be	8.218931
193	0x3fdde956	1.7336833
194	0xbf8e58ed	-1.1120888
195	0xc135e8d0	-11.369339
196	0xc1490a18	-12.564964
197	0x4109e9fe	8.619627
198	0xc0b6a23b	-5.7073035
199	0xc0dd9c04	-6.925295
200	0xc04587a2	-3.0864034
201	0xc08c6533	-4.3873534
202	0xbfa9ce16	-1.3266017
203	0xbeca644e	-0.3952965
204	0xc08d0ec2	-4.4080515
205	0xc00d7292	-2.2101178
206	0xc099b980	-4.803894
207	0xc07874a9	-3.8821204
208	0x40d54f73	6.6659484
209	0xbfb1e6de	-1.389858
210	0x3f38b85e	0.7215632
211	0xc050a97e	-3.260345
212	0x3f8eb3cc	1.114862
213	0xc1447fe6	-12.281225
214	0x40c18273	6.047174
215	0xc0d1fd99	-6.5622067
216	0x4146554b	12.3958235
217	0xc14c8a6f	-12.783797
218	0xc00a0211	-2.1563761
219	0xc0299fea	-2.6503854
220	0xc1098d24	-8.596958
221	0xc07757ca	-3.8647332
222	0x3f02fc35	0.5116609
223	0x4109f13f	8.621398
224	0xc06b7da4	-3.6795435
225	0x4035c473	2.8401153
226	0xc1111b78	-9.069206
227	0xbf8dcdd1	-1.1078435
228	0x3f264040	0.6494179
229	0xc0524495	-3.285436
230	0xc108f9b4	-8.560963
231	0xc0b2def5	-5.5897164
232	0xbfd439da	-1.6580155
233	0xc0d70ae2	-6.7200785
234	0x40cb3b21	6.350968
235	0x3f4eb3b2	0.80742943
236	0xc0bbbcfb	-5.866819
237	0x4034c074	2.8242464
238	0xbf55773f	-0.8338508
239	0x410981c1	8.594178
240	0xc10bfe84	-8.749638
241	0xbf0895da	-0.53353655
242	0x40d3d84f	6.620155
243	0x400d6b02	2.2096562
244	0xc0407be4	-3.0075617
245	0xc11593f2	-9.348619
246	0xc14b0479	-12.688592
247	0x40c1a3cd	6.051245
248	0xc07beda4	-3.9363794
249	0xc048668b	-3.1312587
250	0x3e9341fc	0.2876128
251	0x4080320e	4.00611
252	0xc06bb54b	-3.6829402
253	0xc07b38b0	-3.925335
254	0xbfda7b3a	-1.7068856
255	0xc036429b	-2.8478153
