source/trained_model.pth (torch, 569932 bytes, 10 tensors)

weight f4 [32, 1, 3, 3]
00000000: 53be 02be fe3c 4abe 61af 043f 3453 433e
00000010: c790 2c3e 4aa2 fe3c 0532 93be 1732 b9be
00000020: cbed d6be c9f6 063e eadc 8b3d 95c5 9dbd
00000030: e714 85bb 004e c93b 9b4f 86be f08e 923e
00000040: d2fc 093e 2384 b2be 5971 903e d44f e43d
00000050: af67 87be f845 91bd 1e58 3f3e c081 8bbe
00000060: e3de edbd 2f64 503e 5f6b 78be dead 85be
00000070: 0050 1d3e 9aef d63b c16e 653e 3831 25be
00000080: 5ba6 6c3e 8b1b 833e 42b2 7fbd 9a6b 41be
00000090: 4bd5 98be 0396 76be 04e5 9fbe 1446 613e
000000a0: 1c48 d9bc a564 483e 1907 8f3e 609d 57be
000000b0: 7f82 633e c8da a63e 6ce9 42be 244d 1dbe
000000c0: 9f16 a03e 5abb 1cbe c683 4dbe 86f9 e63d
000000d0: c844 0c3e 3248 bdbd 5415 8b3e bbd4 b4be
000000e0: 768b 2f3e e9f6 18bd 3781 7fbe 83bf 0fbe
000000f0: 441d 633e 16fa 013d 44c4 383e 6a44 613d
00000100: 5b40 463e de7b d83d 38d3 753e f0d7 1b3e
00000110: de45 d33d 115e 12bd b684 44be d956 393e
00000120: 6122 3a3e 4efb 57be 9207 73be b03d 80be
00000130: 0489 5d3d 9e06 9e3e 2db1 b93e c750 cd3d
00000140: 41c8 86be 0795 3fbd f07f 6dbd 2ff7 6cbe
00000150: 303a 063e 00c6 053e e576 9fbe 2b7f 803e
00000160: 0259 3e3d bfc7 eabd 5b0b 013e 6a91 b33e
00000170: 8a58 1f3e daaf 07be 0db1 a63e 3ca5 cdbd
00000180: 2577 8abe 95eb e0bd 8bcd cb3e 3a6c f33d
00000190: c38c 0b3e ea4e 503e bf37 633e a6b5 b1bd
000001a0: a3f0 78be 611b 403e c04d 473d e0c7 ac3e
000001b0: 3b1d 8b3e ecdc 92be 3378 d43d e2a6 aa3e
000001c0: f47d 103e 33eb 9dbe d71d 17be 0956 a03e
000001d0: 5df2 9cbd 9fb8 5bbb 477e a0be ad60 f3be
000001e0: 44c3 2dbd 93b7 4dbe ce96 c83e 0a0a b4be
000001f0: de42 403e d292 f83d 3a0f 80be 1ad5 203d
00000200: 1ecd ccbe 77ea cabd 63db 3ebe 66d1 ca3d
00000210: ced0 7dbe dd47 c3be 94c4 84bd a12d 073c
00000220: 4a06 3cbe 5075 6bbe 48c8 3ebe 238e 873d
00000230: 4e25 a83c 1b37 0b3e ca6b 693d 2674 693e
00000240: 71a5 fbbe f8a0 48bc 962d 953d 961b c1bd
00000250: 79da b5be 8a3d 8abe dd04 c83e 3b09 613d
00000260: 2892 c6be 1ff7 593e 3c07 483d 2db4 c2be
00000270: 9f80 923e 3fb3 763c d5be f3bc df67 383e
00000280: 3f71 acbe d00f ccbe 902e 563e 12c8 f13d
00000290: ba36 b43e f279 3abe 7cbb b7be 23d8 9fbe
000002a0: 7ba8 8fbe 5549 1e3d 9d12 573d b46b 803e
000002b0: ee16 53bd b028 19be 4745 0fbe 2bf1 2dbe
000002c0: 504d babe 50ac e2be fc0a a7be 75e4 8a3e
000002d0: 8d88 54be cad3 23be 9893 b3be 6347 03be
000002e0: 810b 7fbe 7560 febd 86cd bebd fa64 afbe
000002f0: 314b 673e 1275 2ebe 67e6 b7bd 11f2 413e
00000300: 6228 42bd 3736 10be 3ff6 a93d b7cb 8abe
00000310: c163 a43e 8d7f 613e 7ec0 bdbd 4e57 62bd
00000320: b4ad 753e fade eebd 601c ef3d 50d5 8a3e
00000330: d134 dcbe 9f2a 1dbe 67ef 31bd 792a 573e
00000340: 62c6 d93c a36f c1bd d46e 0dbe ed57 84be
00000350: 34af 693e 323a 59be 0923 1f3e c0f1 a03e
00000360: f5d5 b2be 848a ab3e ffb5 8fbe 321c f1bd
00000370: b485 22be 6320 1cbe ea1c a5be 737a 30bd
00000380: 1112 36be bb7a adbd ff6c abbe 9479 b23e
00000390: 15f6 2c3e 0c37 643c 1320 d13b b7ea 2d3e
000003a0: 1ea6 53be 0a5f 2ebd 0368 043f 574e 143e
000003b0: 2190 30bc 3e6c f4bd 295d 04be fe08 7ebe
000003c0: d038 85be c5cc ce3c 5f5b 963e 93e0 f7be
000003d0: e7cc 373a f2a6 e03d 5147 b3be 2d17 c7be
000003e0: 968e aa3e f315 3a3d 17ce adbc b013 8d3e
000003f0: ee48 5d3d 1a3e 5e3e 4a81 773e 55a6 0bbe
-0.12767915 -0.19749829 0.51830107 0.19074708 0.16852103 0.031083245 -0.287491 -0.36171028
-0.41978297 0.13180079 0.068292454 -0.077037014 -0.0040613296 0.0061433315 -0.2623261 0.28624678
0.1347535 -0.34866437 0.28211477 0.111480385 -0.26446292 -0.070934236 0.18685958 -0.2724743
-0.11614778 0.20350717 -0.24259709 -0.26109213 0.15362549 0.0065593245 0.2240553 -0.16132057
0.23110335 0.2560695 -0.06242586 -0.18888703 -0.2985023 -0.24080662 -0.31229413 0.21999389
-0.026523642 0.19569643 0.27935103 -0.21056128 0.22217749 0.32588792 -0.19034356 -0.15361458
0.3126726 -0.15305844 -0.20069799 0.112780616 0.13698113 -0.09242286 0.2716471 -0.3531855
0.17143044 -0.037344847 -0.24951635 -0.140379 0.22179133 0.03173264 0.1804362 0.054996885
0.19360487 0.10570501 0.24006355 0.15219092 0.103160605 -0.03573424 -0.1919125 0.18099536
0.18177177 -0.21091959 -0.23733357 -0.25047064 0.054085746 0.30864424 0.36267987 0.10025173
-0.26324657 -0.046772983 -0.05798334 -0.23141168 0.13108134 0.13063812 -0.31145397 0.2509702
0.046471603 -0.1146388 0.12601988 0.3507188 0.15561119 -0.13250676 0.32556954 -0.100412816
-0.27044025 -0.10982434 0.39805254 0.11885877 0.13627915 0.20342603 0.22189234 -0.08677225
-0.24310546 0.18760444 0.048658133 0.33746243 0.2717074 -0.28684175 0.10374489 0.33330446
0.14110547 -0.30843505 -0.14757477 0.3131564 -0.076634146 -0.003352679 -0.31346342 -0.47534695
-0.042422548 -0.2008956 0.39177555 -0.3516391 0.18775508 0.12137379 -0.25011617 0.03926573
-0.40000242 -0.09908002 -0.18638377 0.09903221 -0.24786684 -0.38140765 -0.06482807 0.008250625
-0.18361774 -0.2299397 -0.18631089 0.06618907 0.0205256 0.1359524 0.05698756 0.22798213
-0.4914966 -0.012245409 0.072840855 -0.0942909 -0.35518244 -0.27000076 0.3906621 0.054940443
-0.38783383 0.21285675 0.048835024 -0.38028088 0.28613755 0.015057384 -0.029754082 0.18008374
-0.3368015 -0.39855814 0.209162 0.118057385 0.35198003 -0.18210581 -0.35885227 -0.31219587
-0.28058228 0.038644154 0.052507985 0.2508217 -0.05153554 -0.14956927 -0.13991271 -0.1698653
-0.3638711 -0.4427209 -0.32625568 0.27127424 -0.20755215 -0.1599876 -0.35073543 -0.128202
-0.24906732 -0.124207415 -0.09316544 -0.34256727 0.22587277 -0.17036846 -0.08979493 0.18939997
-0.047401793 -0.14083181 0.08298921 -0.27108547 0.32107356 0.22021313 -0.092652306 -0.05525904
0.23992044 -0.11663623 0.11675334 0.2711587 -0.43009046 -0.1534829 -0.043441202 0.21012296
0.026583854 -0.09445121 -0.13811809 -0.25848332 0.22820741 -0.21213606 0.15540709 0.3143444
-0.3492886 0.33504117 -0.2806854 -0.11772956 -0.15871316 -0.1524673 -0.32248622 -0.043085527
-0.1778033 -0.084706746 -0.33481595 0.34858382 0.16890748 0.01392914 0.0063819974 0.16984068
-0.20668837 -0.042571105 0.5172121 0.1448301 -0.0107765505 -0.11934708 -0.12926163 -0.24808118
-0.26019907 0.025244126 0.29366586 -0.48413524 0.0007011429 0.10969342 -0.35015348 -0.3888487
0.3331191 0.04543109 -0.021216435 0.27554083 0.05402463 0.21703377 0.24170414 -0.1363767

bias f4 [32]
00000000: 9774 2bbe 6533 9a3c 998c b6bd 0110 503e
00000010: 24de 26bd e940 c73c 46c9 1e3d 710a 9bbd
00000020: fd5d 49be b3b5 043e b827 a23e 3ce2 403e
00000030: 3ceb 123e ef7b 863d 8eaf 9b3d 1c5d 4e3d
00000040: 43a1 253c 1233 67be 1aaf 3cbe d0ff a43e
00000050: 8837 b5bd 4b0f febe 49f8 d7ba 97db f8be
00000060: 9c0e 69be 89cd d5bd 6621 0ebe 9045 70be
00000070: afd3 f9bd 7e92 953c 618d 8cbc 9f06 b3bc
-0.16743694 0.018823335 -0.089135356 0.20318605 -0.040739194 0.024322944 0.038766168 -0.07570351
-0.1966476 0.12959938 0.31670928 0.18836302 0.14347547 0.06566607 0.07601844 0.050381765
0.010109249 -0.22578076 -0.18426171 0.3222642 -0.08848482 -0.49621043 -0.0016477193 -0.48605034
-0.2275948 -0.10439593 -0.13879928 -0.23464036 -0.121985786 0.01825833 -0.017157258 -0.021853743

weight f4 [64, 32, 3, 3]
00000000: 7355 003d 6dbc 82bd d850 25bd 123a de3c
00000010: da6c da3b 40a2 803c 077a 00bd a02e 673b
00000020: e6bb ffbc ea85 f03c ca6f afbc 64b3 c1bc
00000030: 5280 8c3c 5bb9 6dbd 891e 393d 96cb 79bd
00000040: 727e 71bd 80de 183d 546e 5dbd 6d39 47bd
00000050: d91b 7cbd 22cc 053b 04f7 b8bc cbe5 84bd
00000060: d0f1 1c3d c352 88bd 43d8 1ebd d6d3 60bc
00000070: d361 9ebc 19eb 293d f35d 263c 546a 9a3c
00000080: 4da2 58bd 33ee f83c c548 153a c693 223d
00000090: 8131 2f3d 3ee8 213d 570c 4fbd 107e 14bd
000000a0: 86fe 013c 32e9 513c fe72 56bd bea9 76bc
000000b0: c35b 09bd a4d0 3c3d c90a 9ebc 4ff9 77bd
000000c0: 604e 29bc ba71 3dbd e142 2c3c f9df 3bbd
000000d0: b3cd 7fbb 29c2 163c 5224 4abd 28b6 2dbd
000000e0: e03b d7bc 4639 e4bb 3690 1a3d 0db1 893b
000000f0: 0d5e 01bd 0fe9 ecba bbb8 213d cbf4 88bd
00000100: 67d5 4d3b 5eea f2bc 3eda 2cbd f370 3b3c
00000110: 0a0b c23c 8616 9dbc 3d57 4cbd efcf 2abc
00000120: 14b6 83bd 9124 ac3c 73aa 1ebc c92d b23b
00000130: e598 403d 673c 6fbd 3e85 e93c 2a74 f1bc
00000140: 82ea a9bc 2994 033d c71d 873c c199 083d
00000150: 0fc7 1c3c 331b 7abd 51ea 20bd 718e f93c
00000160: 02d9 60bc d19a 87bb 993c a5bc 4688 bd3c
00000170: 2aba 57bd fb6f 233d 8df0 a3bc 2242 903b
00000180: 9508 63bd 5a3c b3bc 6995 88bd ef51 4d3c
00000190: 055f 71bd fe29 59bd 5193 4bbd ebbd 2c3d
000001a0: f0e4 47bd d8c1 ecb9 f430 a5bc c9e1 e23b
000001b0: fa03 72bc 018b 57bc 1cf0 3bbd dc08 81bd
000001c0: 9daf e83c 2611 58bd e969 bf3c f274 eb3c
000001d0: f4e1 0e3d 669a a63c 6a08 e63c 903e 553c
000001e0: 9679 153d 30e1 093d 09c3 983c 4d50 b23b
000001f0: 9529 563c ca3b 18bd 224d 8b3c b8e5 05bb
00000200: df58 33bd 0109 8fbd a2cc 8ebd 6d1d 393c
00000210: 9121 003d 36b6 d2bb bf8a e1bc 20cc 1fbc
00000220: d6c3 7abd cbad aa3c 7a4e 433c 4c0c e8bc
00000230: 8aaa 0b3d d3a6 1e3c 894a cabb 7cd8 febc
00000240: 57d1 6e3c d946 6fbd 9ee2 143d 7471 ec3c
00000250: 44b2 883c 826b a5bc 2786 d23c a80f 523c
00000260: 053b 5f3c 4f3e 393d 625c 863b be08 26bd
00000270: 0d2d b7bb 9b58 013d a136 093d 9338 2d3d
00000280: 6018 12bc c7f0 dfbb 76c6 15bd 2420 85bd
00000290: 75aa e1bc d94d 3cbd 7f9e 3a3d 5879 7bbd
000002a0: cccd 55bd 23a1 44bd ded7 6dbd 694f 34bd
000002b0: 5066 5abd ee5d be3c e8b1 6e3c e25d 7bbd
000002c0: e134 bdbb 6d7d ecbc 64d8 f3bc 7223 27bd
000002d0: f24b b73b 3d04 06bd ffa1 d8bb ef56 113c
000002e0: c93a 64bd e87a 18bd 4e8a 6abd 34e1 49bd
000002f0: 6cad 423d 009a 6cbd 100d 053c e059 3d3d
00000300: 9a94 86bc 7e30 21bc 2c28 f3bb 732d 243d
00000310: ffeb fa3b 0947 343d 8ee7 bfbc 6d27 83bd
00000320: d1bf c6bc 1eb7 afbc d2d3 90bc 635e 3b3d
00000330: e079 8dbd 9c0a 51bd ee78 8b3b e019 243d
00000340: 6d17 36b8 0dad b33c f824 233d 25d5 ca3c
00000350: 0134 4dbc 1c08 673c 0641 0f3d 977a a7bc
00000360: 9bf3 31bd 4828 0ebd 4773 2bbd 5b60 133d
00000370: 3994 a93c 89c9 70bd edc4 fabc 3b0a 133d
00000380: cd6d 74bd 35cf e23a 4dd5 69bd 1137 fabc
00000390: 40dd 2c3d 97df e6bc 653f a73c 7f30 203d
000003a0: d0ba 87bd 893f 1abd e7c1 2b3d 525b ddbc
000003b0: ac03 69bd 044e e0ba 98eb 7abd 9ba6 12bd
000003c0: 8442 c13c 0c6c 33bc 4de7 3a3d 7a6d c53c
000003d0: cb6c 393d 4ab7 eabb d07d 1a3d 5011 89bd
000003e0: c726 a1bc 6aba da3c 88ec abbb 0a9a 1cbd
000003f0: 4375 b7bb 57f6 6fbd 7c75 353d 09a4 e6bb
0.03133149 -0.063835956 -0.0403603 0.0271273 0.006665808 0.015702367 -0.031366374 0.0035275593
-0.031217527 0.02936073 -0.02141561 -0.02364511 0.017151032 -0.058038097 0.045195136 -0.06098517
-0.05895848 0.037321568 -0.054060295 -0.04863875 -0.061549995 0.0020415862 -0.022578724 -0.06489142
0.038316548 -0.066564105 -0.038780462 -0.013722381 -0.019333756 0.041483972 0.010154235 0.01884953
-0.052889157 0.03038702 0.00056947424 0.03969171 0.04277182 0.039528124 -0.050548878 -0.036253035
0.007934218 0.012811946 -0.05235576 -0.015055118 -0.033534776 0.046097413 -0.019292252 -0.060540494
-0.010333627 -0.046251036 0.010513992 -0.045867894 -0.0039032518 0.009201565 -0.049351044 -0.042410046
-0.026273668 -0.0069648353 0.037735187 0.0042020143 -0.031583834 -0.0018074828 0.039482813 -0.066873156
0.0031407715 -0.02965277 -0.04220032 0.011440503 0.023686904 -0.01917578 -0.049887884 -0.010425552
-0.06431213 0.02101353 -0.009684193 0.005437587 0.04702081 -0.058407214 0.028505918 -0.029474337
-0.020741705 0.03212372 0.016493691 0.033349756 0.009568944 -0.061061095 -0.03928596 0.03046343
-0.013723614 -0.0041383286 -0.020170497 0.02313627 -0.052667774 0.039901715 -0.020012164 0.004402415
-0.055428106 -0.021879364 -0.06669123 0.0125317415 -0.05892851 -0.053018562 -0.04970104 0.042173307
-0.048802316 -0.00045157853 -0.020164944 0.0069238883 -0.014771456 -0.0131557 -0.045883283 -0.06300518
0.028404051 -0.05275073 0.023365932 0.028742287 0.034883454 0.020337295 0.028080184 0.013015404
0.036492907 0.03366202 0.018647688 0.0054417015 0.013071437 -0.037166394 0.017004553 -0.0020431112
-0.043785926 -0.06984139 -0.06972624 0.01129852 0.03128201 -0.0064304126 -0.02753198 -0.009753257
-0.06122192 0.020834824 0.011920566 -0.028326176 0.034098186 0.009683329 -0.006173436 -0.031109087
0.014576278 -0.058417175 0.03634893 0.028862692 0.016686566 -0.020192865 0.025698734 0.012821116
0.013624911 0.045225438 0.0041003684 -0.04053568 -0.0055900873 0.03157864 0.033499364 0.04229028
-0.008916944 -0.006834123 -0.03656622 -0.06500271 -0.0275471 -0.04597268 0.04556131 -0.06139502
-0.052198216 -0.048005234 -0.058067195 -0.044021044 -0.05332023 0.023238149 0.014568783 -0.06136883
-0.005774126 -0.028868401 -0.029766269 -0.040805288 0.00559377 -0.032718886 -0.0066111083 0.008870824
-0.055720124 -0.037226588 -0.057260804 -0.049287036 0.04752867 -0.057764053 0.00812079 0.04622829
-0.01642828 -0.009838222 -0.0074205603 0.040082406 0.0076575275 0.044013057 -0.023425844 -0.06404004
-0.024261387 -0.021449622 -0.017679129 0.04574431 -0.069080114 -0.05103551 0.0042563593 0.04006374
-4.3414e-05 0.021933103 0.039830178 0.024759838 -0.012524606 0.0141010545 0.03497412 -0.020444198
-0.04344521 -0.034706384 -0.041857984 0.035980564 0.02070056 -0.05878595 -0.03061148 0.03589843
-0.059675027 0.0017304184 -0.057088185 -0.030543836 0.042203188 -0.028182788 0.020415971 0.03910875
-0.066274285 -0.037658248 0.041932967 -0.027021084 -0.056888267 -0.0017113094 -0.061259836 -0.03580342
0.023591287 -0.010951053 0.045630742 0.024100054 0.04526977 -0.007162963 0.03771764 -0.06692755
-0.01967181 0.026700217 -0.0052467026 -0.03823284 -0.0055986955 -0.058584537 0.044301495 -0.0070385975

bias f4 [64]
00000000: 5731 1d3d e2c9 63bc abde 0b3d f5ba b13c
00000010: 1895 e13c 1eb7 143c b5f7 0cbc e4ed bebc
00000020: 3cc5 5fbd 13bb 2abb 4bd8 2dbd 1e33 343d
00000030: bdbc b7bd 7c52 edbb 18e1 78bd 71d4 12bd
00000040: 38e3 8fbc 8100 103c ee64 4d3d 5e45 00bd
00000050: 1ad3 90bc 9b5d 69bd c662 4e3c e350 4dbc
00000060: 1f0a cf3b 82d0 61bc 2ab4 a3bc a801 313d
00000070: 7844 b6bb 5fa5 e73b 1d7a d8bb 98e2 f83c
00000080: 18c8 adba 8943 a23c 6073 f3bc fbfe 17bd
00000090: fa6f 2dbc df2a 5abc a00b b9bc 2ee9 243d
000000a0: c8d7 67bd d77c fa3c 5bf6 ac3c 047b 1f3d
000000b0: 132a ae3c 1b19 c7bc b372 12bd ba68 7c3c
000000c0: 8023 6fbc 7e0d 10bd be98 803b 9c3a 65bd
000000d0: 4355 7bbd 2eeb 84bc bbdd a8bc 88b1 68bd
000000e0: 6bc9 b3bc ce3e 073d f823 213c 085b 56bd
000000f0: 01e6 0abc 41f0 3bbd dda6 0dbd 7329 c7bc
0.038377132 -0.013903113 0.0341479 0.021695593 0.027536914 0.009076862 -0.00860398 -0.023306794
-0.054631457 -0.0026051446 -0.0424426 0.04399406 -0.08971546 -0.007242499 -0.06076154 -0.03584713
-0.017564401 0.008789183 0.050145082 -0.031316154 -0.017678786 -0.056974035 0.012596792 -0.012531492
0.006318345 -0.013782622 -0.01998337 0.04321447 -0.0055623613 0.0070692743 -0.006606354 0.030381486
-0.0013258485 0.019807594 -0.029718101 -0.037108403 -0.010585779 -0.013315885 -0.022588551 0.04026144
-0.05660227 0.030577106 0.021113565 0.038935676 0.021260297 -0.024303963 -0.035753917 0.015405828
-0.014595866 -0.035169117 0.0039244583 -0.055964097 -0.06136061 -0.016225424 -0.020613542 -0.056809932
-0.02194663 0.03301888 0.009835236 -0.052332908 -0.008477689 -0.04588342 -0.03458296 -0.024311757

weight f4 [64, 64, 3, 3]
00000000: 3bc8 563e dba2 513e dfeb 543e c2d5 503e
00000010: 6779 4d3e 5a31 553e 5f8c 513e fc67 513e
00000020: 367b 473e 28d8 403e cdcc 4c3e fad5 403e
00000030: cdcc 4c3e b86b 423e 1202 413e 2fd5 403e
00000040: 9102 413e b1e7 403e 5497 573e d48d 503e
00000050: 19d7 513e b123 523e e65c 513e 853a 4c3e
00000060: 0d48 533e 63d4 543e 4f9c 563e 7b13 543e
00000070: 675e 563e 64a7 503e e6cd 523e 488b 513e
00000080: 14bd 503e 8217 4f3e 3dfa 523e 03cb 3e3e
00000090: a9f6 453e 5a7a 533e abc4 523e 5773 533e
000000a0: a883 533e 66bd 523e 74b0 533e f4bc 4c3e
000000b0: 809e 4f3e b920 503e 7f74 533e 3403 4f3e
000000c0: 03a7 533e 6347 523e af7c 4c3e 49d3 533e
000000d0: 7725 4b3e ed27 463e 779a 563e 2431 533e
000000e0: 0d0a 553e 2b8c 523e f749 503e d2b4 533e
000000f0: 3618 4f3e 8481 533e 38a8 563e c2ea 503e
00000100: a817 4d3e 22d2 4e3e fa3c 533e e33a 4e3e
00000110: fd0a 4f3e 3d12 553e ed17 573e 39b9 493e
00000120: de3f 553e d5ee 513e 9af1 533e 467f 523e
00000130: c911 523e fd6f 4f3e c2b7 423e ea79 523e
00000140: 8f87 493e 5d49 d33d ae1c db3d 5dc7 88bd
00000150: 6a38 c43d cc6b a33e 311b 46be c36c 303e
00000160: f86e b83e 23b0 88be 0056 543e f5d2 503e
00000170: 4656 4e3e b3ab 513e df61 4c3e 1024 553e
00000180: d70d 493e 1854 483e 397c 593e ea6d 533e
00000190: fbdb 523e 3a61 4f3e f368 533e 02ff 4e3e
000001a0: 766e 4a3e 542d 4b3e ec3e 4a3e 45b3 503e
000001b0: 5fa8 463e eff1 523e c9f1 523e e17c 523e
000001c0: 15a8 463e fbd8 463e 5331 433e 3c0e 533e
000001d0: eef7 503e 4b0b 543e e7a7 4c3e 3e4e 4e3e
000001e0: 8c2e 573e 086f 4c3e ecf7 4e3e 384f 433e
000001f0: 8ffb 423e 6c9a 4a3e 07b9 533e 7afd 543e
00000200: a0e8 4e3e 729b 493e 2eb8 493e b110 4f3e
00000210: 03da 493e 6be0 463e fd70 4c3e 763d 533e
00000220: 8458 523e ee59 533e 9521 543e 4bb4 533e
00000230: ef41 533e 9031 4d3e 01a2 523e 8a99 533e
00000240: 1708 553e 801e 543e 3b62 513e ce52 513e
00000250: c1a5 543e 0d1a 503e 755c 4f3e 4620 4b3e
00000260: c061 4f3e 5056 553e f60d 543e 045b 523e
00000270: f7c6 4d3e b3b3 513e ac7a 513e c6d4 523e
00000280: d124 4a3e 1312 483e 58bf 4e3e 722e 463e
00000290: ce77 523e 67d2 463e 6aa7 463e 84f2 523e
000002a0: fff0 523e 72a7 463e 2fed 523e 0ba9 4f3e
000002b0: 183f 523e 54ac 4c3e bf48 4b3e 1977 433e
000002c0: 207d 443e 15ae 423e 4ca0 553e ef64 453e
000002d0: a996 523e 80b4 4f3e bc79 4e3e 1ffa 503e
000002e0: 79f1 4c3e 8b9c 4e3e 2623 533e 337f 4e3e
000002f0: 4c80 4f3e 831b 553e b8b0 543e 4b19 493e
00000300: 9904 523e 9b95 513e d5e6 523e cfa1 533e
00000310: 4676 513e fe99 513e 6f16 4b3e a712 4d3e
00000320: f996 483e a9ce 4d3e 89d4 4c3e a8d7 4b3e
00000330: e19e 493e e82d 463e 1c41 4f3e ff6e 503e
00000340: ed47 4f3e 319f 4f3e 16ad 543e 685e 4d3e
00000350: 8994 4f3e 721b 433e eb77 533e ce3a 513e
00000360: 7b6f 523e 95af 553e 1704 503e 68f6 533e
00000370: ba24 4e3e 188d 4c3e a45e 543e fd17 4c3e
00000380: d362 443e 0727 503e a6e3 4e3e 1b1b 4e3e
00000390: ca4f 553e 00fa 513e b44e 4d3e 2b57 513e
000003a0: ee3f 463e 1b22 4c3e 385f 503e af22 523e
000003b0: 15d4 563e 6211 4b3e f349 473e 9bee 523e
000003c0: 026b 543e bcdb 4f3e f85c 523e 722c 503e
000003d0: cec9 4d3e e474 513e 4277 4d3e cb91 4b3e
000003e0: f74f 543e 4f7b 4e3e e770 473e a961 543e
000003f0: 6326 4a3e a9bd 4c3e 5331 4b3e 5940 4b3e
0.2097482 0.2047228 0.20793103 0.20394042 0.20065843 0.20819607 0.20463704 0.20449823
0.19480595 0.18832457 0.2 0.18831626 0.2 0.18986404 0.18848446 0.18831323
0.18848635 0.18838383 0.21053821 0.20366603 0.2049221 0.20521428 0.20445594 0.19944198
0.20632954 0.20784144 0.20958064 0.20710556 0.20934449 0.20376354 0.20586357 0.20463288
0.20384628 0.20223811 0.20603271 0.1863213 0.19332375 0.20652142 0.20582835 0.20649467
0.20655692 0.20580062 0.2067278 0.19993955 0.20275307 0.20324983 0.20649908 0.20216066
0.20669179 0.20535044 0.19969438 0.20686068 0.1983851 0.19351168 0.20957361 0.20624214
0.20804615 0.20561282 0.20340715 0.20674446 0.2022408 0.20654875 0.20962608 0.20402053
0.20028555 0.20197347 0.2062873 0.20139651 0.20219035 0.20807739 0.2100522 0.19699563
0.20825145 0.20501263 0.20697632 0.20556363 0.20514597 0.20257564 0.1901541 0.20554319
0.19680618 0.10316727 0.106988296 -0.066786505 0.09581073 0.3191818 -0.1934631 0.1722899
0.36022162 -0.26696882 0.20735931 0.20392974 0.20150098 0.20475654 0.1995921 0.20814538
0.19634186 0.19563329 0.21238793 0.20647398 0.20591728 0.20251933 0.20645504 0.20214465
0.197687 0.1984151 0.19750565 0.20380886 0.19400166 0.20600103 0.20600046 0.2055545
0.19400056 0.19418709 0.19061784 0.20610899 0.20407078 0.20707433 0.19985925 0.20147035
0.2101385 0.1996423 0.20211762 0.19073188 0.19041274 0.1978547 0.20676051 0.20799819
0.20205927 0.19688204 0.19699165 0.20221211 0.19712071 0.19421546 0.19964977 0.20628914
0.20541579 0.20639774 0.20715936 0.20674245 0.2063062 0.20038438 0.20569612 0.20664039
0.20803867 0.2071476 0.20447628 0.20441744 0.20766355 0.20322438 0.20250113 0.1983653
0.20252132 0.20833707 0.2070845 0.20542532 0.2009543 0.20478706 0.20456952 0.20588979
0.19740607 0.19538145 0.2019018 0.19353655 0.20553514 0.194162 0.19399801 0.20600325
0.20599745 0.19399813 0.20598291 0.20279329 0.20531881 0.19987613 0.19851969 0.19088401
0.19188356 0.1901172 0.2086193 0.19276784 0.20565285 0.20283699 0.20163625 0.20407914
0.2001399 0.20176904 0.20618877 0.2016571 0.20263785 0.20811276 0.20770538 0.19638555
0.20509566 0.20467226 0.20595868 0.20667194 0.20455274 0.204689 0.19832776 0.20026647
0.19588841 0.20098366 0.2000295 0.19906485 0.19689514 0.1935345 0.20239681 0.20354842
0.20242281 0.2027557 0.20769152 0.20055544 0.20271505 0.19053438 0.20651214 0.20432588
0.20550339 0.2086776 0.2031406 0.20699465 0.20131198 0.19975698 0.20739228 0.19931026
0.19178323 0.20327388 0.20204028 0.20127527 0.20831218 0.20505524 0.20049554 0.20443408
0.19360325 0.19934885 0.20348823 0.20521043 0.2097934 0.1983085 0.19461803 0.20598833
0.20743945 0.20298666 0.20543277 0.20329455 0.20096514 0.20454746 0.20065024 0.19879834
0.20733629 0.20164226 0.19476663 0.2074038 0.19741206 0.19994225 0.19843034 0.19848765

weight f4 [128, 576]
00000000: 7a2e 423d 86cc fb3b 310a 5e3c a641 d9bb
00000010: 6ae4 afbc 9a9f d33c 9b34 c0bd 1736 52bd
00000020: 09b3 b0bc 9962 553d 38bb 563d 5611 063d
00000030: 1aa2 acbc 6a02 6f3d 83bd 073d 1b2b eebc
00000040: d073 903c a6af ab3c 02ba 38bd 01f6 163d
00000050: 955d a93d e982 2338 b061 13ba 57d6 f23c
00000060: a33b 63bd 4dba d9bc adaf 883c 33d8 523b
00000070: 52b8 a93d 66dd 823d f30c a93d 054a 5e3d
00000080: 539f 4cbd 6670 91bd 08bb 9cbd 08e0 963c
00000090: 1653 603d 2f10 653d 9f2b b7bd 9477 cdbc
000000a0: 5b06 1b3d 7996 0f3d 8d04 93bd fcb2 9ebd
000000b0: d5b1 673c 145a 103b cbf7 a33c a7ae d23c
000000c0: 63ff 423c 64a2 a2bd c092 1b3d b49a b7bd
000000d0: 8710 89bc f624 f0bc 4fc7 2e3a 8ec0 503c
000000e0: 9eae 433d 4fdb 913c bf82 05bd 1370 f8bb
000000f0: a571 fb3b fe82 03bd 3e27 04bd b272 a9bc
00000100: f35b 38bd 0815 7e3c 24a6 7b3d 85d7 293d
00000110: 297e 90bd 4e55 19be 73cc 00bd f335 75bc
00000120: 489e 743d 01ef c53b c241 673d 8274 4c3c
00000130: 108e 003d 45eb 733b 23d9 04bc 22ef 17bd
00000140: f7c9 533d 9b1b 95bd 6008 4d3d 432f ce3c
00000150: 529f 56bc de2d 4d3c 13e2 123d 521b 3abd
00000160: 350b 633a 79fa 20bc 86d1 953d 0ec7 2e3d
00000170: b8c9 123c caa9 ffbc fd48 b83b cd53 c33c
00000180: 30ff 58bd 821e 63bc e90f 7b3c 1b2a c3bd
00000190: 24cc ad3d d8ca 513d 0688 ec3c 2c73 253d
000001a0: 47d5 313c c958 35bd dcbb 023c f75a 6e3d
000001b0: 0ca1 8b3c 702c d3bc 9091 7a3d 82f0 c6bc
000001c0: 14e3 a63c c746 d1bc 2d72 31bd 52db 9ebd
000001d0: d648 6b3b 031f 2b3d f12b 553d a88d e23c
000001e0: 05ff 47bb e631 82bc 1120 533c 35ad 52bd
000001f0: 7e52 93bd 97ad f6bc 0209 e73d e602 a43b
00000200: 7edf 5c3b 4841 3c3d 8ea0 1a3d 7a07 f23b
00000210: 99bf 5fbc 12c9 0e3d 957c 8fbb 9846 773d
00000220: a311 473c 62d2 803d 6773 8c3c e470 0e3d
00000230: e293 3bbd 167e 06bd 0e04 48bd 9eef 963c
00000240: acd6 703c 44ce c93d 1061 2c3b c30c 6a3c
00000250: 74f5 a03b 309f 0ebd bebf c8bd 6e75 dbbc
00000260: 8e11 e33c 34e5 f93b bc39 8cbc 25a2 783d
00000270: 48db 713c a2ee 633d 129a 46bc 78f3 42bc
00000280: 2514 da3a 00de 863d b4be 6a3c dac9 7d3d
00000290: bc43 c13c 6033 89bc b8e8 9d3c fc98 d8bc
000002a0: 4ba4 b4bc 71e7 d9bc f497 153c b507 903d
000002b0: c7cb 033c 443c 723c eeac d0bc fe9e acbc
000002c0: a9a6 363c 33df 8abd 37cf e0bd bc54 c83b
000002d0: 68d9 a5bc 7e26 513c f960 033d 432c a43b
000002e0: 8c98 dd3c 1247 5fbd 80ba 05bd 7893 793c
000002f0: 4694 a63c 5993 713d df15 953c 56f2 cd3c
00000300: aae5 fb3b 42f1 5c3c f740 9c3d 3677 59bc
00000310: 681e 893c 39fb 66bd 0287 953d bacc 603d
00000320: b2f9 f53c ec96 19bd 23c7 45bb 8e2c 653d
00000330: 582e f7bc 8579 1fbd 5554 0abc 3561 c0bc
00000340: d5ef 1b3d e718 093c ef9a 0f3d 63ab 283d
00000350: 879a 0ebc c400 fdbd 1d33 cabd 5836 97bd
00000360: 3a18 71bc 9d89 433c 6154 4a3d c8de ad3c
00000370: affc 3e3d 9ca7 9abc 5a39 e6bd 0045 83bd
00000380: 7f66 f23c bc6b 67bd 2ba3 763d 67ad 403d
00000390: 49cb 8a3d 0abd c43c 1dd2 7bbd d126 dfbd
000003a0: 0a30 b5bd 416e ffbc 413e 94bd 4b29 0c3d
000003b0: 815e 9a3c 29d9 a53c 7401 2dbc 3a1e ec3a
000003c0: ac08 6cbd 3767 30bd fa5d 96bd 0f60 51bd
000003d0: 889b 8d3c f607 4f3d 8665 b7bc 60ba 563d
000003e0: a548 dfbc 741b 92bd e2ef abbd 7656 53bc
000003f0: 8d21 663d 5801 bb3c d1f8 633b 9088 d53c
0.047407605 0.007684293 0.0135522345 -0.0066301404 -0.021471221 0.02583294 -0.09385034 -0.051321115
-0.021569746 0.052095983 0.05242464 0.032731377 -0.02107339 0.05835191 0.033139717 -0.029073289
0.017633349 0.02095778 -0.045099266 0.0368557 0.082698025 3.8984148e-05 -0.00056221616 0.02964322
-0.055476796 -0.026578093 0.016685331 0.0032172322 0.082871094 0.06389885 0.08254423 0.05426981
-0.04995663 -0.071015164 -0.07652861 0.018417373 0.054766737 0.055923637 -0.08943867 -0.025081433
0.037847858 0.03505561 -0.07178602 -0.07748982 0.01414152 0.0022026347 0.020015618 0.025718046
0.011901709 -0.0794113 0.03798175 -0.08965054 -0.016731514 -0.0293145 0.00066672725 0.012741221
0.04777395 0.01780477 -0.032595392 -0.0075817197 0.0076734596 -0.032107346 -0.032263987 -0.020684574
-0.045009565 0.015507944 0.06143774 0.0414653 -0.07055313 -0.14973947 -0.031444978 -0.014966476
0.05972126 0.0060404544 0.056459196 0.0124789495 0.03138548 0.003721909 -0.00810841 -0.03709329
0.05170628 -0.07280656 0.050056815 0.02516902 -0.013099508 0.012523143 0.035860132 -0.04543621
0.0008661033 -0.009825342 0.07315354 0.042670302 0.008959226 -0.031208891 0.0056239353 0.02384367
-0.05297774 -0.013862254 0.0153236175 -0.09529515 0.08486202 0.051218837 0.028873455 0.04039304
0.010854072 -0.044274125 0.0079793595 0.05819222 0.017044567 -0.025778025 0.061173975 -0.024284605
0.020371951 -0.025546445 -0.043321777 -0.07756676 0.0035901568 0.041777622 0.05204386 0.027655438
-0.0030516994 -0.015892934 0.012886063 -0.051434714 -0.071934685 -0.030112071 0.11281015 0.0050052283
0.0033702548 0.045960695 0.037750773 0.007386145 -0.01365652 0.034859724 -0.004378865 0.060370058
0.012150201 0.06290127 0.017144872 0.03477563 -0.04579533 -0.03283509 -0.04883199 0.018424805
0.014699619 0.09853795 0.002630297 0.014285269 0.004912073 -0.03481978 -0.09802197 -0.026789393
0.027718332 0.0076262 -0.017117374 0.060701508 0.014761753 0.0556475 -0.012121694 -0.011898868
0.0016638084 0.06585312 0.014327694 0.06196008 0.023591869 -0.01674813 0.019276008 -0.026440136
-0.022050997 -0.026599618 0.009130467 0.0703272 0.00804419 0.014784876 -0.025473084 -0.021071907
0.011148133 -0.06780853 -0.10977023 0.0061136167 -0.020245269 0.012765525 0.032074902 0.005010159
0.02705028 -0.054511137 -0.032648563 0.015232913 0.020334374 0.058978412 0.018198906 0.025139969
0.00768729 0.013485255 0.076295786 -0.013273051 0.016738132 -0.05639193 0.07301141 0.054882742
0.03002629 -0.037497446 -0.003017851 0.055950694 -0.030173466 -0.03893425 -0.008442958 -0.023483852
0.03807052 0.008367754 0.035059866 0.041179072 -0.008703834 -0.12353662 -0.0987303 -0.07383412
-0.014715249 0.011934665 0.049396876 0.021224394 0.046627697 -0.01887875 -0.11241408 -0.06409645
0.02958989 -0.056499228 0.060214203 0.04704037 0.06777055 0.024015922 -0.061479677 -0.108960755
-0.08847053 -0.031180503 -0.072384365 0.034219068 0.018843891 0.020245152 -0.0105594285 0.0018014379
-0.057625458 -0.043067183 -0.07342143 -0.051117 0.017286077 0.0505447 -0.022387277 0.052423835
-0.02725632 -0.071341425 -0.083953634 -0.012899032 0.05618434 0.02282779 0.0034785757 0.026066095

bias f4 [128]
00000000: 6bb2 803e de1d 10bd 1007 29bd c864 d03e
00000010: 66d6 95bb 66c3 133e 56e2 493b 9179 cabb
00000020: 16ad e7bc c494 bbbc 4c60 12bd 331e 8cbb
00000030: 1557 37be eaa7 d0bb 9f17 43bd 7f54 5fbd
00000040: 15b9 c5bc adc7 53be 908f 10bf cc4f bb3c
00000050: 4d1e 24bc 196c 4f3d 0f21 cfbd a5a0 2bbd
00000060: 0bd0 24bb 9f79 113e 9806 06bd aebe 99bc
00000070: 24f4 b93e 2c18 80bd 366f 93bb d44e 123d
00000080: 1908 8d3c 1e91 3fbc 62d2 e7bb c79c 4ebb
00000090: 420b 81be 08ed 39bd b96f b33e 56f8 333e
000000a0: cc1b 363e d321 adbb 6dbc 093c 49f6 983c
000000b0: 8f7c 67bd b27a 8c3e bcc0 f93a 1639 043f
000000c0: f267 403e 207c 0bbd 1892 84bb 008c 80bc
000000d0: 8728 03be 0222 ddbc 41d7 dc3d 88a5 aa3e
000000e0: 2ff7 b2be 6f2f 51bd 2fa1 2fbe 49c7 033f
000000f0: e1f0 9f3e f9ac a5bc 0abd 543d 4d48 1dbc
00000100: 9d73 923e 4eca c23e e45c 14be 93c8 2cbe
00000110: 8452 1bbd b92c 083e 3a83 1abc f2a6 0bbd
00000120: 8255 efbc c52f f6bc 36af 3ebb 0ea7 8e3e
00000130: 1b9a 97bb 7c1c 563e a8f1 92bc 1433 09bd
00000140: 6046 58bb 970d a4bc d3b7 473e cf30 a63e
00000150: 39bb 18bd 5cbe 57bb b7d3 02bc b2a6 36be
00000160: 78d3 97bd fbe3 913e caf5 51be e7d3 3abe
00000170: 4bd8 1a3f ac29 33bc e0d9 fdbc 1728 173f
00000180: aaf5 56bd f0ab 12bc 3c74 e63d f838 c1bc
00000190: fd6a bfbd 0889 3ebe 7b95 b8bc 60fe 87bc
000001a0: 0106 0cbf 084f 24bc 557a f3bc 3c0f 14bd
000001b0: ec80 11bd 7a50 613c fd5e f33c 5ddc adbe
000001c0: 9761 8d3e 785d ce3d 0bfb 023e 0009 2d3c
000001d0: 19c2 473e 8cc6 c9bc c2cb 2ebc 4e7c 2bbd
000001e0: 1536 29bb 2473 21be af19 12bc b099 b13d
000001f0: 222a 1abd 475b 4bbd 1c33 78bc c24b 373d
0.25136122 -0.035184734 -0.0412665 0.4070189 -0.0045726774 0.14430007 0.0030805073 -0.0061790426
-0.028280776 -0.022898085 -0.035736367 -0.004276061 -0.17904313 -0.006367673 -0.04762995 -0.05452394
-0.024136106 -0.20681639 -0.5646906 0.022865199 -0.01001699 0.0506402 -0.10113727 -0.04190125
-0.0025148417 0.14206551 -0.032721132 -0.018767681 0.36319077 -0.062546104 -0.0044993414 0.035719708
0.017215775 -0.0116923135 -0.00707464 -0.0031526552 -0.25203902 -0.045392066 0.35046175 0.17575201
0.17784041 -0.005283573 0.008406741 0.018672125 -0.056515273 0.2743736 0.0019054632 0.51649606
0.18789652 -0.03405392 -0.004045736 -0.015691757 -0.12808429 -0.026993755 0.10783244 0.33329415
-0.3495421 -0.051070627 -0.1715133 0.5147596 0.31238464 -0.020224081 0.051938094 -0.009599757
0.2860383 0.3804497 -0.1448856 -0.16873388 -0.03792049 0.1329831 -0.009430701 -0.03409476
-0.029215578 -0.030052075 -0.0029096133 0.27861828 -0.004626525 0.20909303 -0.017937496 -0.033495978
-0.003300093 -0.020026011 0.19503717 0.32459113 -0.037287924 -0.003291986 -0.007985047 -0.17837027
-0.07413381 0.28494248 -0.20503917 -0.18244897 0.60486287 -0.010935228 -0.03098768 0.5904555
-0.052480377 -0.008952126 0.11252639 -0.023586735 -0.09346578 -0.18606961 -0.022532215 -0.016600788
-0.5469666 -0.010028608 -0.029721418 -0.03614734 -0.03552334 0.013752097 0.02970838 -0.33957186
0.27613518 0.100764215 0.12791078 0.010561228 0.19507636 -0.024630807 -0.010668697 -0.041866593
-0.002581959 -0.15766579 -0.008917256 0.08671892 -0.037637837 -0.049647596 -0.015148904 0.044749983

weight f4 [10, 128]
00000000: fdfd 49bd 8152 4f3c ebba 4f3b efaa dd3d
00000010: 07d9 6839 513e 8e3d 566f 6fbc 5bde f33b
00000020: c3db 553d fc51 32bd 5f1e dabc 7a0c be3c
00000030: f7b0 743d 5ef1 653d 2639 993c 3cec 50bc
00000040: b473 bebc f6cf 07be a1c6 383d 1e8c da3c
00000050: 97ab 49bd e5fa 603d f0cf ab3d ff9d ab3b
00000060: 03ea af3c 365b 2f3e 7c04 bbbd 1ac5 5d3d
00000070: 9bba 553d e47c 9ebc 8105 5f3d 43ac 5bbd
00000080: 8684 fc3c 9b07 94bb 7a74 8bbb 44ee 11bd
00000090: 8eb1 61be b007 44bb adec d5bd bf2f 0abe
000000a0: 3c9e a1be a23f adbd a46c 6bbd 6e42 1b3c
000000b0: 12aa e6bc c0e7 02bd 3940 ba3d 6dea 083d
000000c0: 31db c4bd 5846 d03c 5966 bebd c911 463c
000000d0: e2e4 02be 9984 bd3c c33b 483d 28d9 f33d
000000e0: 968b 223d d8ae 20bd ed30 e53d 5343 3d3e
000000f0: 92ca d1bd 0457 95bc ee52 b73c 1af8 39bd
00000100: 725b fd3c ec39 31be f833 24be 57c4 d13d
00000110: 4497 8c3d 9fc7 883d d5f9 a0bc 266b 68bc
00000120: 92c5 b03d cd8f b4bd 4cde 9e3d 7cd5 b0bd
00000130: 5dd6 8bbd d390 26be 2f54 eb3a 023d a8bd
00000140: 6e3c 9f3c 8f07 52bd 6664 b4bd 30e1 6b3b
00000150: a035 013d 7524 673d 180f 10bd e771 dfbb
00000160: ab7a 743d 398b 65be 9ea1 0a3e a13c 96bd
00000170: e5d3 34bd 44d6 a0bd 50d9 1f3d 4efe 08bd
00000180: 41a2 de3c 6ddd d4bc 4287 f6bd fe59 85bc
00000190: a582 8b3e bd6b 7fbd 9b18 6cbd 62b3 b53c
000001a0: bdba 3f3d 21d6 b4bd d0cf 94bd c25a 16bd
000001b0: bde6 ea3c 0ec5 41bd 0236 17bd 80d9 20be
000001c0: 2b1c 67be a6a7 263d b807 e4bd dcd4 03bd
000001d0: 15fc 20be e9c2 d63c 09dc 9d3d d37e b73c
000001e0: 9744 943d fc81 8d3d 9d3d acbc d8b5 15bd
000001f0: 73e3 75bd 2609 813d f5f6 9f3d ed60 463c
00000200: 4fab 0a3c 5bfc 2fbd 79ef 98bd 38b7 ba3e
00000210: 2b80 82bc 8140 c03d 493b ce3d 4544 2dbd
00000220: cfe5 8abd c5cc 83bd 425a 6ab9 05e0 f33c
00000230: 5691 abbd d0ea 053d 487c 44bc 1a18 8bbd
00000240: f245 c43c 8588 d23b 994b c7bd 10f5 653d
00000250: aebf 87bd e0c7 3cbd f6ec 40bd 2d5c 40bd
00000260: a5de 87bd 6e53 933d 1e12 a33b 0db0 7dbd
00000270: 294d d93d 01d8 96bd 5ae8 b0bc c8cd 413d
00000280: fb72 dbbc 98e3 dd3c 81a3 753d 86f4 7bbd
00000290: 5023 16bc 165b 6ebd 1968 213e c0fc d23d
000002a0: 5290 20bd f041 953d 0fb0 8fbd 681e 84bd
000002b0: 9d9f 8cbd 0f0a 603d 82c1 873d 913e 8b3e
000002c0: be49 3d3d c503 9c3d 40a0 71bd fbf1 05bd
000002d0: 4e64 a7bd 901c 48bb 19f0 ad3c e562 b13d
000002e0: 6454 e2bd 6122 cbbd b97e 00be 1c9c 2f3e
000002f0: 6cdd c83d 7673 12bd ef73 5f3d b310 37bd
00000300: b7e8 fdba b1c9 af3e bd1a 44bd 98d1 9fbd
00000310: 1a6d 0cbd a510 9bbb d34d e33c d66c fe3c
00000320: 8eb4 debc 46b6 4bbd 28eb 8c3d 2008 f03d
00000330: 9a4b a8bd 7c3b 47bd 76f3 20bc 080c b0bd
00000340: dca2 473a bb06 7e3d 161f 8dbd aea1 363d
00000350: dea2 e03c a911 ccbc ad9b 12bd 14c8 2fbd
00000360: c281 483d 7aae ca3e 53d4 ebbd 512a 51bc
00000370: 780a 973e a33e 7b3d 87e6 f63c 6948 1e3e
00000380: 9da8 abbb f409 07bd a97c ac3d 568b 8ebc
00000390: 7d6f 95bd 30dd 8c3c ea7b 933c 3ac1 b33c
000003a0: c379 09be 2484 f3bc 1a2b 393d 6de3 a5bd
000003b0: 3f7b e8bb 6874 453d 6683 db3d 643b eebd
000003c0: d193 d13d aee5 3fbc 2d76 10bd 7015 5bbd
000003d0: d9d7 5fbb ec8a 453d 5f47 a43d cba1 58bd
000003e0: d560 5cbe ef61 7cbe f32c 4fbd 3119 ec3c
000003f0: 9376 1a3b 7d9c 343d 06c0 1b3d 4442 923d
-0.049314488 0.012653948 0.0031697105 0.108236186 0.00022206093 0.0694548 -0.014613947 0.0074422783
0.052211534 -0.043535218 -0.02662581 0.023199309 0.05973908 0.05613839 0.018704008 -0.012751635
-0.02324853 -0.13262925 0.045111302 0.026678141 -0.049235906 0.05492677 0.0838927 0.0052373405
0.02147389 0.17124638 -0.09131715 0.05414305 0.052179914 -0.019346662 0.05444861 -0.05363108
0.03082491 -0.004517508 -0.0042558284 -0.03562762 -0.22040388 -0.0029911809 -0.10445533 -0.13494776
-0.31566036 -0.084594026 -0.057476655 0.009476287 -0.028157268 -0.031959295 0.09094281 0.03342669
-0.0961212 0.025424168 -0.09296865 0.012089201 -0.12782624 0.023134517 0.04888512 0.11906654
0.0396839 -0.039229244 0.111909725 0.18482713 -0.10243715 -0.018229969 0.022378411 -0.045402624
0.030927394 -0.17307252 -0.1603545 0.10242527 0.06864789 0.066787 -0.01965038 -0.014185702
0.086314335 -0.0881649 0.077572435 -0.08634469 -0.06827996 -0.16266184 0.0017954166 -0.08214761
0.019437995 -0.05127674 -0.08808212 0.0035992377 0.03154528 0.056431253 -0.035170645 -0.006818998
0.059687298 -0.2241639 0.13538215 -0.07335783 -0.04414739 -0.07853368 0.039025605 -0.03344565
0.027176978 -0.02598449 -0.12037517 -0.016278263 0.2724811 -0.062358607 -0.057640653 0.022180263
0.046808947 -0.08829904 -0.072661996 -0.036707647 0.028674478 -0.047307067 -0.03691674 -0.1570797
-0.22569339 0.040687226 -0.11134285 -0.03218542 -0.15721162 0.026215987 0.07707984 0.022399342
0.07239645 0.06909558 -0.021025473 -0.036550373 -0.060031366 0.06300573 0.07810775 0.01210807
0.008463695 -0.042965274 -0.07467551 0.3646791 -0.015930256 0.09387303 0.100699015 -0.042301435
-0.06782114 -0.06435541 -0.00022349603 0.029769907 -0.0837733 0.032694638 -0.011992522 -0.067917064
0.023959134 0.006424966 -0.09731216 0.056141913 -0.06628357 -0.046089053 -0.047100984 -0.046962906
-0.06634263 0.07193647 0.004976525 -0.061935473 0.1061042 -0.07365418 -0.021595169 0.04731539
-0.026788225 0.027086064 0.059970383 -0.061512493 -0.009163693 -0.058192335 0.15762366 0.103021145
-0.039200135 0.07287967 -0.070160024 -0.06451112 -0.06866381 0.054697093 0.066287056 0.27196172
0.046212904 0.076179065 -0.058990717 -0.032701474 -0.081734285 -0.0030534603 0.021232652 0.08661441
-0.110512525 -0.09918667 -0.12548341 0.17149395 0.09807858 -0.035754643 0.054553922 -0.04469366
-0.0019371723 0.34333566 -0.047877062 -0.07803649 -0.034283735 -0.004732209 0.02774707 0.031057756
-0.027185705 -0.049734376 0.0688079 0.117203 -0.08217545 -0.048640713 -0.009823671 -0.08596045
0.00076155155 0.062018137 -0.06890695 0.044587784 0.027421411 -0.024910765 -0.035792995 -0.04291542
0.04895187 0.3958624 -0.11515107 -0.012766437 0.29500175 0.061339032 0.03013922 0.1545731
-0.005238606 -0.032968476 0.084222145 -0.017400425 -0.07296655 0.017195314 0.018003423 0.021942724
-0.13425355 -0.029726095 0.04520712 -0.08100019 -0.00709477 0.048206717 0.10718422 -0.116324216
0.10233272 -0.011712475 -0.03526895 -0.05348724 -0.0034155755 0.04822819 0.080214255 -0.052888673
-0.21521313 -0.24646734 -0.050579976 0.028820606 0.002356921 0.04409455 0.038024925 0.071415454

bias f4 [10]
00000000: 676c 02be cd61 d33e 8c52 ba3c cf9e 5fbe
00000010: a54a 1e3c e04b 82be c8b7 54bc 0c55 2b3e
00000020: 7dfc bc3d 0150 d6bd
-0.12736665 0.41285554 0.02274444 -0.21837924 0.009661351 -0.25448513 -0.01298327 0.16731662
0.09227846 -0.10464478

feedback f4 [1000, 10]
00000000: 5dc8 2cc0 069b 64c0 7192 52bf 6fc4 9b3f
00000010: da82 c3c0 32ca 1a3f 2a73 53c1 2428 1641
00000020: b01a 383f 0f20 ac40 a0c8 583f 705a 15c0
00000030: 6476 1c40 5af4 cac0 cd26 7d40 9eb5 93c0
00000040: 967a d740 5b59 e3c0 8a4a 78c0 1cd9 11c0
00000050: 5bcc 83bf cbbb c440 8e55 e2bf 5147 48c0
00000060: c391 5fbf 42d6 13c0 b411 17c0 fea5 72c0
00000070: 784b e13f f9cd 70c0 32f1 6dbf 4f04 d740
00000080: 792d eabf 5b6a 3ec0 e451 afbf 7980 29c0
00000090: 9817 47c0 586e 81c0 524c e33f 3c61 6dc0
000000a0: cf6f dc40 ba42 7bc0 afd8 f8be 2b40 03c0
000000b0: 1402 bec0 9edb 2abf af08 0840 9a79 81c0
000000c0: 7c6c 12be a0a5 14c0 4a77 77bf d761 0241
000000d0: 41b2 2ac0 9cbd 87c0 9e55 eabf 10e3 4ec0
000000e0: cb85 3ec0 7256 a3c0 b727 0d40 aad9 97c0
000000f0: 9bb7 2e3e 58c5 3040 2858 e640 1ac5 a3be
00000100: 4909 62c0 82c3 95c0 c35e b4c0 01b8 4240
00000110: 2cfc 26bf 5649 95c0 9f8a 83c0 2204 6cc0
00000120: 68c4 903f caaf 0c41 cf5f e2c0 56e8 3e40
00000130: c681 1cc1 a08f cd3c bf0a 7d40 d823 c9be
00000140: 3923 abc0 94c6 7c3f 45b5 1040 16ab dfc0
00000150: 2da5 1941 c203 b8c0 8c4d 1ebf d5f6 1cc0
00000160: 4e38 91bf 0df7 15c0 9324 2cc0 b2c9 b83f
00000170: fee1 0741 5a42 4d3f 1daa fabf c472 b1c0
00000180: 3aa1 6dc0 77ec 3840 f805 6ec0 b41c 6ec0
00000190: ca67 cbbe b161 f0bf 818e 8f40 0b61 6540
000001a0: 234e e9c0 d86b bd3d 0a98 d0c0 aeff a43f
000001b0: 9405 9a40 3ad9 57c0 c039 39c0 415a 98c0
000001c0: cafd a33f aa44 fc40 e2ec bcc0 3e77 9840
000001d0: 2b60 bfc0 035e 3ac0 d603 7e40 28f0 3dbf
000001e0: 202c 74c0 f07a f43e 0b8c 873f dce8 99c0
000001f0: 254f dd40 412c 40c0 6230 a5bf 614f 17bf
00000200: d87f b1be 3653 e2bf 568c db3e 5d66 b5c0
00000210: 775a 6bc0 51df 583e 0be3 acbf 9ea1 ba40
00000220: 83f1 84bf abf9 0dbf 2b69 6d3f 5c45 b4be
00000230: e8c1 823f 124a 5bc0 8f48 af3e 8a3f dbbf
00000240: 0d3a d63f 6c58 863e 57ba a040 84ec b4c0
00000250: a9b0 babf d44f 17c0 8da7 2ac0 3e26 6c3f
00000260: 511f d640 b539 2440 694d 26c0 591d 3bc0
00000270: e03c d1c0 f6c7 9a40 e127 e7bf cb9e 8cc0
00000280: 7ac1 3040 2600 9bc0 5541 a4bd 6954 8abf
00000290: d9d9 93bf 3013 633f 7655 4340 47cc 9cc0
000002a0: c641 93be 8d0e a3bf 2536 acbf 7e96 bd40
000002b0: 7c79 c9bf 4d12 49c0 b5a0 93bf f0ee 02c0
000002c0: a00b 09c0 ac5f 87c0 e260 1f40 1b65 89c0
000002d0: a3ef 6ac0 65b1 bf3f 593e f340 9cda 093f
000002e0: af78 99bf 04fe 8ec0 92f7 78c0 8d88 5040
000002f0: 0604 4ac0 f576 6cc0 bf7e 73c0 93d8 863f
00000300: 3af6 c640 cd4a 1340 effb 08c0 8349 10c0
00000310: f5f1 dbc0 13ff b340 5e74 b8bf b74a a0c0
00000320: 721b 17c0 58a4 7ec0 df27 853e 8710 53bf
00000330: cba2 5fc0 78c7 b83f 3f7f a6c0 0c32 ccbf
00000340: 4ab6 f140 c07c 56be 9977 a7bf 12ad c8bf
00000350: 847a 7840 648e f6c0 ef9f ab40 4426 85c0
00000360: 9856 0d41 4e6b dac0 1d86 a9c0 ae77 94c0
00000370: 6692 11c0 58a0 31c0 9b21 4640 0dc7 be40
00000380: 8cd1 a0c0 ee88 2240 ba71 77c0 29d9 2ac0
00000390: 6cfe 2140 86ab 5abf 39d5 8dc0 f0ff 43c0
000003a0: 4d2c cebf 329f a8bf 5380 8440 b038 ad3e
000003b0: 2977 1bc1 4c1e 8b40 109a efbf 8abf db40
000003c0: f445 f3bf 99ab fabe 8c31 ce40 391e 2f40
000003d0: de29 86c0 fe62 11c0 7ae1 9fc0 1918 3840
000003e0: 03b3 80be 9cf3 5ac0 3ef6 a4bf 37de cd40
000003f0: 97f7 8dc0 aa31 94c0 9e9b e0bf e8ed fcbf
-2.6997292 -3.5719619 -0.822547 1.2169322 -6.109723 0.60464776 -13.215616 9.3848
0.7191572 5.3789134 0.8468113 -2.3336449 2.444726 -6.342328 3.9554932 -4.61592
6.733714 -7.1046576 -3.8795495 -2.2788763 -1.0296739 6.147924 -1.7682359 -3.1293528
-0.8733179 -2.3099523 -2.3604555 -3.7913814 1.7601156 -3.7625716 -0.9294616 6.719276
-1.8295127 -2.9752414 -1.3696866 -2.6484663 -3.110815 -4.0447197 1.7757666 -3.7090597
6.8886485 -3.9259477 -0.48602816 -2.0507915 -5.9377537 -0.6674136 2.12553 -4.046094
-0.14299196 -2.322609 -0.96666396 8.148887 -2.6671298 -4.2418957 -1.8307378 -3.2326088
-2.976916 -5.1043024 2.205549 -4.7453203 0.17062227 2.762045 7.1982613 -0.31986314
-3.5318167 -4.6801157 -5.6365676 3.0424807 -0.65228534 -4.665202 -4.1106715 -3.6877522
1.1309938 8.792917 -7.0741954 2.9829307 -9.781683 0.0250929 3.953781 -0.3928516
-5.3480496 0.98740506 2.2610638 -6.9896345 9.602826 -5.7504587 -0.6183708 -2.4525654
-1.1345308 -2.3432038 -2.6897323 1.4436553 8.492674 0.8017937 -1.9583164 -5.5452595
-3.7129655 2.8894327 -3.7191143 -3.720502 -0.39727622 -1.8779813 4.4861455 3.584048
-7.290788 0.09249085 -6.5185595 1.2890527 4.813181 -3.3726335 -2.8941498 -4.7610173
1.2811825 7.883382 -5.9039164 4.764556 -5.9804893 -2.911988 3.9689841 -0.74194574
-3.8151932 0.47750044 1.0589613 -4.809675 6.915911 -3.002701 -1.290539 -0.591055
-0.3466785 -1.7681644 0.42880505 -5.6687455 -3.6773965 0.21178938 -1.3506788 5.8322287
-1.0386204 -0.5545909 0.927386 -0.35209167 1.0215425 -3.426396 0.34235045 -1.7128766
1.6736466 0.26239336 5.0227466 -5.6538715 -1.4585162 -2.3642473 -2.6664765 0.9224585
6.691323 2.5660222 -2.5984747 -2.9236662 -6.538681 4.8369093 -1.8059045 -4.394384
2.7618089 -4.843768 -0.080202736 -1.080701 -1.1550857 0.8870115 3.0520911 -4.899936
-0.2876112 -1.2738816 -1.3454024 5.9246206 -1.5740199 -3.141742 -1.1533419 -2.0458336
-2.1413345 -4.2304287 2.4902883 -4.293592 -3.6708763 1.4976012 7.601361 0.53849196
-1.1989955 -4.468508 -3.8901105 3.2583344 -3.1564956 -3.6947606 -3.804611 1.0534843
6.217557 2.3014405 -2.1403768 -2.2544868 -6.873286 5.624887 -1.4410512 -5.0091205
-2.3610501 -3.9787807 0.26006982 -0.82447094 -3.494311 1.4435873 -5.203033 -1.5952773
7.553502 -0.20946026 -1.3083373 -1.5677817 3.8824778 -7.7048817 5.363273 -4.160921
8.833641 -6.8255987 -5.2976213 -4.6396093 -2.2745605 -2.7754116 3.095801 5.961798
-5.0255795 2.5396075 -3.8663163 -2.6695044 2.5311537 -0.85417974 -4.432278 -3.0624962
-1.610727 -1.3173583 4.1406646 0.33832312 -9.716592 4.3474483 -1.8718891 6.867131
-1.9005723 -0.48959044 6.443548 2.7362196 -4.1926107 -2.271667 -4.996274 2.8764708
-0.25136575 -3.4211187 -1.2887647 6.433376 -4.4364734 -4.6310625 -1.7547491 -1.9760103
